model.pth (torch, 120917 bytes, 32 tensors)

finger.conv1.weight f4 [16, 3, 3, 3]
0.067999 0.11240201 -0.17463002 0.1355782 0.07497704 0.025599778 0.14207046 -0.13543826
-0.15428346 0.23736438 0.15107554 0.12898766 -0.12543473 -0.10325783 0.070985384 -0.031705715
0.24089418 -0.13131016 0.09644242 -0.033382185 0.003825843 -0.09093665 0.21747467 0.019879688
-0.020091224 -0.0298484 -0.36190003 -0.11210982 -0.26431274 0.10258605 0.034305718 -0.053349894
-0.035867367 -0.10102097 0.034508087 -0.111445785 -0.3241146 0.07382112 0.012245446 -0.048029087
0.059658397 -0.15519455 0.23102403 -0.0061361184 0.00093293295 -0.059725232 0.026661811 -0.03774397
0.2603902 -0.022671493 -0.06694522 -0.19810867 0.2286147 0.16046403 0.030518914 -0.032034475
0.06607921 0.11635898 0.11979508 -0.17162456 -0.029059837 -0.117556244 0.015645036 -0.124960534
-0.023392508 0.013404722 0.18252823 -0.0017676946 -0.050477695 -0.022073258 0.18668194 0.18812963
-0.085948996 -0.056988675 0.14893419 -0.28197503 0.04780279 0.022618935 0.022128826 -0.15069601
0.1717298 -0.024793962 0.16540019 0.20761833 -0.050202314 0.010051106 -0.04695655 -0.058788337
-0.16244607 0.088678315 0.08723805 0.021093048 0.14002766 0.068353005 0.1364115 0.09474697
0.0057277097 0.039050613 0.040348638 -0.022205625 0.048401337 -0.07539662 -0.046634268 -0.009515493
-0.044960972 -0.0831686 0.13229059 0.19791082 0.25970405 0.12020876 0.13265917 -0.09826438
0.09096463 0.043455217 -0.13021383 -0.11862947 0.19978239 0.06127032 0.031794634 -0.1907528
-0.042631753 -0.03914359 0.04208636 0.09877345 -0.04816962 -0.02045436 -0.13613245 -0.2039745
-0.15219696 -0.05721137 -0.17251657 -0.10375166 0.033987235 0.16004883 -0.049586818 -0.1411147
0.015114835 -0.06867512 -0.16458993 0.074756846 0.028314559 -0.025103131 -0.17556062 -0.143278
0.033323303 -0.15276383 0.03966516 -0.017960055 -0.14520586 -0.11037523 -0.007173043 -0.047914572
-0.05318907 -0.05255279 -0.14405324 0.2071213 -0.36611223 0.027771262 0.004403323 -0.029778795
-0.018910574 -0.10675624 0.019011969 -0.07142332 -0.067097776 -0.06505633 0.0042011854 0.114329524
0.14757589 -0.082154386 -0.0993663 -0.062681794 0.08927478 -0.019210922 0.0993567 -0.077714905
0.22722287 0.26663667 -0.030910863 0.043432944 0.15413392 -0.09904427 -0.047792513 -0.047375154
0.07847436 -0.067710325 -0.10832363 -0.2385762 0.03252209 -0.065602325 -0.219159 0.062182985
-0.028617099 0.11375779 0.107883975 -0.09791736 -0.31075087 -0.05678003 -0.15464495 0.008874325
-0.06837929 -0.22386381 -0.12461866 -0.16693614 -0.12384496 -0.0046732496 0.1684083 -0.101338364
-0.08441452 0.09911981 -0.007714325 0.02695612 -0.08280844 0.15020311 -0.055105112 -0.0006528847
0.3140973 0.09903675 0.044277433 -0.11463372 -0.07445365 -0.1287517 0.0085771615 -0.1118905
0.09163358 -0.10312185 0.12549447 0.23583719 -0.09379952 0.086844325 0.16592248 0.17566358
0.16050124 0.19509023 0.026848111 -0.02781835 -0.08762596 -0.0562992 0.07968565 -0.020816565
-0.19353712 -0.09186602 -0.07165374 0.006217299 0.013444261 0.06116734 0.026187342 0.2928228
0.23578292 -0.284755 0.027466409 -0.29305115 -0.04708623 -0.019734154 -0.10112026 -0.20404844
00000000: 0f43 8b3d 0633 e63d 36d2 32be 03d5 0a3e
00000010: 908d 993d a0b6 d13c eb7a 113e 54b0 0abe
00000020: 7cfc 1dbe a60f 733e 8cb3 1a3e 5715 043e
00000030: f671 00be d778 d3bd c960 913d dadd 01bd
00000040: f7ac 763e 2c76 06be 9a83 c53d c2bb 08bd
00000050: ffba 7a3b ff3c babd aeb1 5e3e bada a23c
00000060: 5a96 a4bc a284 f4bc f64a b9be d599 e5bd
00000070: 0054 87be a318 d23d 2784 0c3d 6b85 5abd
00000080: a9e9 12bd 15e4 cebd 5a58 0d3d b03d e4bd
00000090: 59f2 a5be 872f 973d 20a1 483c 26ba 44bd
000000a0: 5d5c 743d 52eb 1ebe 9091 6c3e 7e11 c9bb
000000b0: 1290 743a 72a2 74bd df69 da3c 6c99 1abd
000000c0: dd51 853e 91b9 b9bc 931a 89bd 00dd 4abe
000000d0: f919 6a3e af50 243e cd02 fa3c 9536 03bd
000000e0: 8954 873d 9e4d ee3d 1f57 f53d 59be 2fbe
000000f0: e50e eebc 54c1 f0bd 052a 803c 4feb ffbd
00000100: a5a1 bfbc 7b9f 5b3c aee8 3a3e fdb1 e7ba
00000110: b3c1 4ebd fad2 b4bc 8d29 3f3e 0ea5 403e
00000120: 0706 b0bd f56c 69bd 3482 183e 085f 90be
00000130: dccc 433d 584b b93c 8347 b53c 0e50 1abe
00000140: f0d9 2f3e b51c cbbc ab5e 293e e699 543e
00000150: f1a0 4dbd 65ad 243c 8355 40bd 0acc 70bd
00000160: 4358 26be fa9c b53d dda9 b23d 54cb ac3c
00000170: 6963 0f3e a9fc 8b3d 75af 0b3e b30a c23d
00000180: 83af bb3b 89f3 1f3d 9d44 253d 92e8 b5bc
00000190: 7b40 463d 8b69 9abd 9303 3fbd dfe6 1bbc
000001a0: ff28 38bd 4d54 aabd 2f77 073e 22a9 4a3e
000001b0: eef7 843e 0330 f63d ced7 073e d63e c9bd
000001c0: aa4b ba3d 19fe 313d c656 05be 02f4 f2bd
000001d0: c193 4c3e 96f6 7a3d 173b 023d b454 43be
000001e0: a29e 2ebd 0755 20bd bf62 2c3d bc49 ca3d
000001f0: 824d 45bd e78f a7bc 4e66 0bbe b1de 50be
00000200: 85d9 1bbe 7856 6abd 2fa8 30be c07b d4bd
00000210: 3336 0b3d d7e3 233e 8c1b 4bbd 5f80 10be
00000220: 37a4 773c 8ba5 8cbd 438a 28be 1e1a 993d
00000230: eff3 e73c 15a5 cdbc 2ac6 33be 78b7 12be
00000240: 047e 083d 1f6e 1cbe ef77 223d f720 93bc
00000250: d8b0 14be 690c e2bd d90b ebbb 1242 44bd
00000260: c8dc 59bd 9841 57bd b182 13be 9b17 543e
00000270: 1073 bbbe 8f80 e33c c049 903b a9f2 f3bc
00000280: 59ea 9abc 04a3 dabd fdbe 9b3c 6446 92bd
00000290: 8f6a 89bd 413c 85bd 19aa 893b 9925 ea3d
000002a0: 221e 173e 8f40 a8bd 8f80 cbbd 505f 80bd
000002b0: b2d5 b63d 3960 9dbc 877b cb3d fe28 9fbd
000002c0: 1dad 683e 9a84 883e c738 fdbc bee6 313d
000002d0: 48d5 1d3e b9d7 cabd 15c2 43bd 730c 42bd
000002e0: 2ab7 a03d b6ab 8abd c8d8 ddbd 524d 74be
000002f0: e235 053d 835a 86bd 386b 60be 96b3 7e3d
00000300: 686e eabc d8f9 e83d 46f2 dc3d e688 c8bd
00000310: bd1a 9fbe 2d92 68bd 3f5b 1ebe 9e65 113c
00000320: 710a 8cbd 8e3c 65be 1138 ffbd 4ff1 2abe
00000330: 6da2 fdbd 0f22 99bb 3a73 2c3e 7d8a cfbd
00000340: 85e1 acbd 54ff ca3d 73c8 fcbb 15d3 dc3c
00000350: 7997 a9bd d8ce 193e e6b5 61bd 5a26 2bba
00000360: 5cd1 a03e c8d3 ca3d 415c 353d 15c5 eabd
00000370: 287b 98bd 7cd7 03be 3987 0c3c d926 e5bd
00000380: 63aa bb3d 8c31 d3bd 9f81 003e 4e7f 713e
00000390: f619 c0bd 70db b13d 95e7 293e 27e1 333e
000003a0: 705a 243e bcc5 473e 92f0 db3c 4fe3 e3bc
000003b0: 3d75 b3bd fd99 66bd 3b32 a33d 8087 aabc
000003c0: 982e 46be 4024 bcbd 32bf 92bd 7cba cb3b
000003d0: 5145 5c3c 9b8a 7a3d d686 d63c dfec 953e
000003e0: 1471 713e 68cb 91be 3c01 e13c cd0a 96be
000003f0: 7edd 40bd 85a9 a1bc 2418 cfbd 13f2 50be

finger.conv1.bias f4 [16]
-0.00014686401 2.9294948e-05 -4.6445624e-05 0.0001686925 0.0001712529 -0.00012333691 6.6929366e-05 0.00010210113
0.00017052551 0.0001343997 2.5412828e-05 0.00013770256 6.636246e-05 -1.8236533e-05 -0.00015038598 -0.00016554134
00000000: 82ff 19b9 6cbe f537 9cce 42b8 0ce3 3039
00000010: 5a92 3339 0054 01b9 6e5c 8c38 201f d638
00000020: 18cf 3239 a5ed 0c39 a22d d537 4064 1039
00000030: 132c 8b38 a8fa 98b7 eeb0 1db9 2a95 2db9

finger.bn1.weight f4 [16]
1.0000707 0.99980015 1.0001765 1.0001342 0.99983126 0.9999644 0.9998126 1.0001969
1.0000404 1.0001967 0.9998105 1.0001746 1.0001718 0.99980295 0.9998001 0.9998024
00000000: 5102 803f e7f2 7f3f c905 803f 6604 803f
00000010: f1f4 7f3f abfd 7f3f b8f3 7f3f 7406 803f
00000020: 5301 803f 7206 803f 95f3 7f3f b905 803f
00000030: a105 803f 16f3 7f3f e6f2 7f3f 0df3 7f3f

finger.bn1.bias f4 [16]
7.114962e-05 -0.00018621849 0.00019821909 0.00011118701 -6.14592e-05 -4.3876375e-05 -0.00019885082 0.00019954794
9.980629e-05 5.7517274e-05 -0.00018750332 0.0001797429 8.612922e-05 7.7867066e-05 -7.290667e-05 0.00019436618
00000000: 2936 9538 a543 43b9 08d9 4f39 122d e938
00000010: a8e3 80b8 e607 38b8 9c82 50b9 be3d 5139
00000020: 184f d138 b43e 7138 8a9c 44b9 5e79 3c39
00000030: 46a0 b438 904c a338 78e5 98b8 c6ce 4b39

finger.bn1.running_mean f4 [16]
0.008374035 0.0038194028 0.0027780829 0.0469255 -0.056065876 -0.08662973 -0.0061967745 -0.056375172
0.013275947 0.016634207 0.008930272 0.013461634 -0.022905111 -0.013866494 0.016784607 -0.027267542
00000000: 4033 093c f24e 7a3b 7f10 363b f434 403d
00000010: 55a5 65bd ee6a b1bd 500e cbbb a7e9 66bd
00000020: 5c83 593c 7644 883c 4750 123c 2f8e 5c3c
00000030: 80a3 bbbc 4b30 63bc df7f 893c 2e60 dfbc

finger.bn1.running_var f4 [16]
0.963788 0.9203406 0.84384567 1.1313756 0.8665469 1.7992445 0.82887906 1.449673
0.9959596 0.86595464 0.8785714 0.91402155 0.8739489 0.8340287 0.83992773 1.1359309
00000000: cfba 763f 719b 6b3f 4506 583f ead0 903f
00000010: 05d6 5d3f a54d e63f 6b31 543f e38e b93f
00000020: 35f7 7e3f 34af 5d3f 0eea 603f 51fd 693f
00000030: 1dbb 5f3f e882 553f 8105 573f 2f66 913f

finger.conv2.weight f4 [32, 16, 3, 3]
-0.058797672 0.15477571 0.049170732 0.031005522 -0.059946172 0.071403936 -0.019960968 0.014029781
-0.089276694 -0.010657254 -0.022956226 -0.007929226 0.044893853 0.09866801 -0.043630924 0.05882599
0.1499769 0.07896119 0.016889894 0.0368505 -0.050825946 0.10859012 0.032006077 0.07424984
-0.16939776 0.086006686 -0.023575455 -0.091516085 -0.009890306 -0.065176584 0.05411253 0.060662948
-0.0110531915 -0.045457814 -0.0024423955 0.11223561 0.04553185 -0.07159682 0.005084712 -0.0075737145
-0.07210216 0.18196179 -0.057331078 -0.057279434 0.012992729 -0.07419935 0.18949974 -0.16385078
-0.09148547 0.04875793 -0.021353522 0.02420454 0.09471726 -0.10895882 -0.095524736 -0.07965126
0.02088149 0.06733125 -0.04208458 0.042070553 -0.05043935 -0.052569114 -0.009600144 -0.16128646
-0.12848198 0.034442786 0.0046295947 -0.07501622 0.043860413 -0.104251884 -0.0072319917 -0.12332393
-0.05019768 0.026772605 -0.07034959 -0.0059549734 0.08618617 -0.08621126 0.06473078 -0.010409244
-0.021519085 0.05817682 -0.0703824 -0.058025017 0.08927095 -0.008503281 0.00604509 -0.14411527
0.03126191 -0.16857031 -0.055676363 -0.21088915 -0.14305629 -0.025717825 -0.0023524882 0.048075538
0.10669127 0.029346544 -0.011459742 0.007424189 -0.04151324 -0.015375883 -0.09097962 0.020193953
0.1402083 0.019875009 0.011977949 0.045857243 0.12166496 0.00828112 -0.092238486 0.1239693
0.024364216 0.006665394 0.09506533 0.039027892 -0.035505544 -0.089493066 0.09551275 -0.08011224
0.043003276 -0.030254869 -0.08171626 0.057803273 -0.1748762 0.025642147 0.026819065 0.020285266
0.064798854 -0.020858178 0.04279344 -0.009138215 -0.2685244 -0.015134649 -0.003808749 0.09669141
0.04134545 -0.072947994 -0.015451141 -0.08905248 0.006104054 0.10516796 0.010037209 0.03212504
0.034724765 0.0626116 -0.03542406 0.03739433 0.0031858934 0.0039872746 0.04161536 -0.08198558
0.060043592 0.007417459 -0.060513165 -0.038383197 0.08283811 0.05978069 -0.083904244 -0.0032750673
0.072438605 -0.16128744 0.08546017 -0.14277469 0.048065923 -0.13327976 -0.085072175 -0.09890585
0.05744255 0.15637061 0.025860382 -0.052186057 -0.11477773 0.014624827 -0.06612632 0.0071454956
0.07312113 0.035839066 0.08750034 -0.0009443134 0.09338918 -0.05701969 0.09614427 -0.00037255883
-0.044092245 0.00838557 -0.03288944 -0.037062217 0.13360128 0.01177468 -0.019931484 -0.09042328
0.0281689 -0.10512278 -0.019958626 0.123183705 0.16237754 -0.09555958 0.07487875 0.06238711
0.09909559 0.15636778 -0.127699 0.16197051 -0.012149558 0.084572874 0.06667662 0.028636407
-0.060952924 -0.06035437 0.046599917 -0.00625749 0.011413945 -0.00018764095 0.15628023 -0.025663668
-0.05442481 0.28684396 -0.006033512 0.02883935 0.0023877244 -0.05623924 -0.023537833 0.16628203
-0.042481646 -0.028827246 -0.059453458 -0.11162902 -0.03864706 0.067181356 -0.10161387 0.11566037
0.05063742 0.07576758 0.0020621545 -0.08671425 -0.064648114 0.086786404 -0.035571445 -0.08668747
0.01805876 0.07300393 0.06773624 -0.02502886 -0.0016483372 -0.03550362 0.119906805 0.027937401
-0.06457054 -0.081266865 0.04185078 0.18574317 0.0043345527 0.10472857 0.010943003 -0.09965462
00000000: d4d5 70bd 867d 1e3e 4067 493d 4bff fd3c
00000010: 1e8a 75bd 3a3c 923d 2f85 a3bc 2bdd 653c
00000020: b3d6 b6bd c39b 2ebc b20e bcbc 96e9 01bc
00000030: 9ee2 373d 7412 ca3d 57b6 32bd 85f3 703d
00000040: 8b93 193e 68b6 a13d ad5c 8a3c 8df0 163d
00000050: de2e 50bd 7f64 de3d ce18 033d 4d10 983d
00000060: 9b76 2dbe 4624 b03d 5021 c1bc c96c bbbd
00000070: f30a 22bc 4d7b 85bd 1aa5 5d3d b679 783d
00000080: 7218 35bc f931 3abd 9910 20bb c9db e53d
00000090: 9b7f 3a3d 5ba1 92bd a89d a63b ec2c f8bb
000000a0: 4caa 93bd 3154 3a3e fed3 6abd d79d 6abd
000000b0: 75df 543c d4f5 97bd 380c 423e 80c8 27be
000000c0: bc5c bbbd 65b6 473d 95ed aebc 9948 c63c
000000d0: 1ffb c13d cd25 dfbd 79a2 c3bd 3320 a3bd
000000e0: a90f ab3c f7e4 893d e160 2cbd 2c52 2c3d
000000f0: 7e99 4ebd b652 57bd ec49 1dbc 4728 25be
00000100: c890 03be e113 0d3d dbb3 973b 1ba2 99bd
00000110: faa6 333d 0382 d5bd 58fa ecbb 4291 fcbd
00000120: 159c 4dbd 3952 db3c 7213 90bd f021 c3bb
00000130: 6082 b03d 878f b0bd 9291 843d 898b 2abc
00000140: cb48 b0bc d14a 6e3d a624 90bd a4ab 6dbd
00000150: b0d3 b63d 5851 0bbc e415 c63b f492 13be
00000160: 7d0c 003d b29d 2cbe e60c 64bd 53f3 57be
00000170: 597d 12be 30ae d2bc 342c 1abb dbea 443d
00000180: f480 da3d 2a68 f03c a4c1 3bbc 9c46 f33b
00000190: ca09 2abd 21eb 7bbc 8653 babd ca6d a53c
000001a0: c492 0f3e ead0 a23c 293f 443c ced4 3b3d
000001b0: 7b2b f93d 89ad 073c 88e7 bcbd 9ee3 fd3d
000001c0: 7797 c73c 6169 da3b 9db1 c23d b6db 1f3d
000001d0: 436e 11bd 2448 b7bd 309c c33d e311 a4bd
000001e0: 3424 303d 0fd9 f7bc db5a a7bd 20c3 6c3d
000001f0: bf12 33be 7b0f d23c a8b3 db3c 492d a63c
00000200: 43b5 843d c5de aabc 2d48 2f3d 74b8 15bc
00000210: 087c 89be 52f7 77bc 349c 79bb 2506 c63d
00000220: d959 293d c265 95bd c826 7dbc 2661 b6bd
00000230: 8404 c83b 4d62 d73d 1b73 243c 8c95 033d
00000240: 8e3b 0e3d 833a 803d d218 11bd cc2a 193d
00000250: 6cca 503b afa7 823b de74 2a3d 0ee8 a7bd
00000260: 45f0 753d 280e f33b a7dc 77bd b337 1dbd
00000270: 07a7 a93d 99dc 743d fdd5 abbd 83a2 56bb
00000280: b15a 943d 8928 25be be05 af3d 8733 12be
00000290: c6e0 443d 7d7a 08be 523a aebd 268f cabd
000002a0: e148 6b3d 9e1f 203e 27d9 d33c 0cc1 55bd
000002b0: 9610 ebbd f89c 6f3c 3c6d 87bd c324 ea3b
000002c0: 88c0 953d fccb 123d 6133 b33d cd8b 77ba
000002d0: d442 bf3d 7a8d 69bd 49e7 c43d 0054 c3b9
000002e0: 129a 34bd a163 093c 14b7 06bd 8dce 17bd
000002f0: c6ce 083e 96ea 403c 5a47 a3bc d72f b9bd
00000300: 77c2 e63c 9d4a d7bd 4680 a3bc bd47 fc3d
00000310: 4c46 263e beb4 c3bd 085a 993d a089 7f3d
00000320: a1f2 ca3d e01e 203e 87c3 02be 99db 253e
00000330: f10e 47bc 8b34 ad3d c08d 883d e696 ea3c
00000340: c6a9 79bd 2536 77bd 8edf 3e3d a10b cdbb
00000350: 8e01 3b3c 7cc1 44b9 ed07 203e 9d3c d2bc
00000360: 8dec 5ebd 36dd 923e c4b4 c5bb 8040 ec3c
00000370: 5e7b 1c3b 1e5b 66bd 6ad2 c0bc d645 2a3e
00000380: 3c01 2ebd 1e27 ecbc 7885 73bd c19d e4bd
00000390: 614c 1ebd 6196 893d ef1a d0bd 58df ec3d
000003a0: 2f69 4f3d 082c 9b3d 3625 073b 3e97 b1bd
000003b0: 3b66 84bd 12bd b13d 5db3 11bd 3389 b1bd
000003c0: f7ef 933c 1683 953d 4cb9 8a3d 5309 cdbc
000003d0: 050d d8ba 3e6c 11bd b391 f53d fadc e43c
000003e0: 8f3d 84bd 3e6f a6bd b96b 2b3d 7533 3e3e
000003f0: dd08 8e3b ef7b d63d 484a 333c b917 ccbd

finger.conv2.bias f4 [32]
-0.00019298721 -0.00016598764 0.00018831479 0.00018346985 0.00018666769 0.00017562245 3.4986628e-05 0.00019331694
-0.00017795642 -0.00019057584 -0.00016850882 -0.00019591919 -0.00012225453 0.0001983734 -5.2316096e-05 0.00018439759
0.00019300266 -0.00011749078 -3.7359867e-05 0.0001607101 -6.010284e-05 4.489972e-05 0.00014240216 -0.00015635967
8.238152e-05 -0.0001723718 0.00019433955 -0.00016540008 -0.0001689457 0.00018876788 0.0001727184 -0.00017920724
00000000: 9c5c 4ab9 f80c 2eb9 5e76 4539 d061 4039
00000010: 3abc 4339 4b27 3839 9bbe 1238 1fb5 4a39
00000020: d099 3ab9 50d5 47b9 beb1 30b9 a86f 4db9
00000030: 7331 00b9 7402 5039 fb6d 5bb8 da5a 4139
00000040: c260 4a39 6265 f6b8 dab2 1cb8 4a84 2839
00000050: ef16 7cb8 b552 3c38 ca51 1539 7bf4 23b9
00000060: 3ec4 ac38 b4be 34b9 a0c7 4b39 3f6f 2db9
00000070: 0427 31b9 feef 4539 be1b 3539 94e9 3bb9

finger.bn2.weight f4 [32]
0.9998895 1.0001339 0.99981475 0.9998286 0.99994844 1.0001439 1.0002002 1.0002002
0.9998059 1.0001795 0.99989086 0.9999088 0.999848 1.0001792 0.99982786 1.0001186
0.99983525 0.9998332 0.99987084 0.99982524 1.0001918 1.0001504 1.0001512 0.9997999
1.0001993 0.9998036 0.9998316 0.9998245 0.9998917 0.9998317 0.99981153 1.0001729
00000000: c2f8 7f3f 6304 803f dcf3 7f3f c4f4 7f3f
00000010: 9ffc 7f3f b704 803f 8f06 803f 8f06 803f
00000020: 48f3 7f3f e205 803f d9f8 7f3f 06fa 7f3f
00000030: 0af6 7f3f df05 803f b8f4 7f3f e303 803f
00000040: 34f5 7f3f 12f5 7f3f 89f7 7f3f 8cf4 7f3f
00000050: 4906 803f ee04 803f f404 803f e3f2 7f3f
00000060: 8806 803f 21f3 7f3f f7f4 7f3f 80f4 7f3f
00000070: e7f8 7f3f f8f4 7f3f a6f3 7f3f aa05 803f

finger.bn2.bias f4 [32]
-0.00017444865 0.0001770977 -0.00015731307 -0.00016276451 -3.48623e-05 0.00015829521 0.00018680943 0.00019479747
-0.00018388513 0.00016762366 -0.00013363632 -0.0001672699 -0.00016026935 0.00017516952 -0.0001674945 0.0001404246
-0.00017140509 -0.00016975548 -0.000110838286 -0.00018154352 0.00020013528 0.00014848422 0.00015992303 -0.00017747728
0.00018362416 -0.0001667664 -0.00016730643 0.0001243561 -8.9338035e-05 -0.00016411243 -0.00018125243 0.00017336413
00000000: 34ec 36b9 4db3 3939 68f4 24b9 c4ab 2ab9
00000010: 1c39 12b8 0cfc 2539 46e2 4339 8c42 4c39
00000020: 4ad1 40b9 22c4 2f39 ba20 0cb9 2c65 2fb9
00000030: fa0d 28b9 b6ad 3739 76a1 2fb9 f13e 1339
00000040: 34bb 33b9 6400 32b9 da71 e8b8 b85c 3eb9
00000050: 68db 5139 6eb2 1b39 03b1 2739 3219 3ab9
00000060: 3c8b 4039 04de 2eb9 fa6e 2fb9 9665 0239
00000070: fe5a bbb8 9815 2cb9 940e 3eb9 14c9 3539

finger.bn2.running_mean f4 [32]
-0.08640748 0.32634372 -0.108223855 0.09124395 0.017627278 0.21509384 -0.07698438 0.015765462
0.1834022 0.12610756 0.33386242 0.11760463 -0.04888045 -0.17319137 -0.040206335 -0.034831803
-0.081075326 -0.037380666 -0.06748237 -0.1676338 0.008716758 -0.23110296 0.019802209 -0.03425871
0.09692103 0.013219513 -0.0880294 0.057965055 0.022885604 -0.11988881 -0.27400783 -0.24667597
00000000: 68f6 b0bd 8616 a73e 78a4 ddbd 1cde ba3d
00000010: 1567 903c 8f41 5c3e fda9 9dbd 9226 813c
00000020: c9cd 3b3e 5722 013e 04f0 aa3e b2da f03d
00000030: de36 48bd 1459 31be 66af 24bd cbab 0ebd
00000040: d20a a6bd 781c 19bd 3234 8abd 32a8 2bbe
00000050: bcd0 0e3c 41a6 6cbe 3e38 a23c dc52 0cbd
00000060: 887e c63d a896 583c c248 b4bd c46c 6d3d
00000070: 977a bb3c 4488 f5bd c14a 8cbe a098 7cbe

finger.bn2.running_var f4 [32]
0.85442376 0.9572496 0.8805096 0.97640383 0.8760831 0.91374964 0.89796084 0.8702928
0.8768304 0.8704518 0.98604375 0.8986058 0.90200895 0.86725783 0.8630076 0.8874151
0.8663851 0.85504705 0.8620895 0.9002467 0.85008705 0.9926105 0.9577907 0.8588197
0.8873963 0.8788152 0.8575449 0.8810617 0.9037185 0.8825399 0.924587 0.9308537
00000000: 84bb 5a3f 4f0e 753f 1469 613f 9af5 793f
00000010: fb46 603f 7feb 693f c3e0 653f 82cb 5e3f
00000020: f577 603f eed5 5e3f 5d6d 7c3f 080b 663f
00000030: 0fea 663f 9c04 5e3f 11ee 5c3f a32d 633f
00000040: 6acb 5d3f 5de4 5a3f e6b1 5c3f 9176 663f
00000050: 4e9f 593f b91b 7e3f c531 753f 9cdb 5b3f
00000060: 672c 633f 08fa 603f 1088 5b3f 428d 613f
00000070: 185a 673f 23ee 613f bcb1 6c3f 6e4c 6e3f

iris.conv1.weight f4 [16, 1, 3, 3]
-0.002547572 -0.042204477 -0.12949081 0.12133565 0.11227538 0.016061196 0.13771032 0.042238396
-0.04583262 0.092427745 -0.25109392 0.096285164 0.11446872 -0.13742085 0.080581106 -0.26170605
0.25238502 0.00839971 -0.08071846 -0.11609501 -0.08317367 0.24890772 -0.027067784 -0.18356994
0.003245035 -0.1800827 -0.11293251 -0.18237363 -0.10642418 0.12325364 0.2272413 0.16351092
0.024265133 -0.17999381 -0.20354317 -0.06671439 0.001211782 0.12509944 0.005158404 -0.0011924019
0.1229291 -0.06276303 0.047389083 0.110207975 -0.08058254 0.12255253 -0.12267601 0.044133905
-0.014475956 0.007995943 0.22391202 0.24397512 0.08039217 0.040516324 -0.062310435 0.081234604
0.09905943 0.15553512 -0.09853753 -0.06473786 0.06579448 0.051992252 0.06999514 -0.07219835
-0.054618612 0.0063894745 0.091943845 -0.05279204 -0.23601988 0.010949339 0.07208102 0.101851225
-0.24215229 -0.036132894 -0.24338353 0.2222592 -0.07108517 -0.13196895 -0.017871091 0.026694417
-0.03421556 -0.045761317 0.09849447 0.08627022 0.18634298 -0.21236083 0.010609754 0.04592029
-0.033778574 0.33404487 -0.00994885 -0.12026506 0.0698451 0.14429069 0.10468572 -0.04534819
0.041575488 0.10876851 0.16721568 -0.115377665 0.043015037 -0.13389456 -0.059511084 0.116255775
0.02400671 0.025203742 -0.2752151 0.07452136 0.0518151 -0.055495135 -0.16500905 -0.04490196
-0.091710776 -0.031474248 0.14983179 0.13852479 -0.19376183 -0.058035694 0.14183202 0.02407778
0.26550186 -0.023116069 0.023086201 -0.025725845 -0.19404703 -0.13721901 0.22921444 -0.04923912
0.07249726 0.0671453 0.08275068 -0.036706172 -0.11409121 0.033327963 -0.01085437 0.03316091
0.045455102 0.095200166 0.04092668 0.0005911933 -0.19042228 0.08912574 0.1856812 -0.015382542
00000000: 2af5 26bb 9ade 2cbd 3d99 04be d37e f83d
00000010: a2f0 e53d c592 833c ef03 0d3e 2b02 2d3d
00000020: fcba 3bbd c24a bd3d 628f 80be 2831 c53d
00000030: 946e ea3d 0db8 0cbe b507 a53d 56fe 85be
00000040: 9c38 813e f09e 093c b84f a5bd 38c3 edbd
00000050: f556 aabd aae1 7e3e 42bd ddbc c2f9 3bbe
00000060: a7aa 543b 9967 38be 2949 e7bd 27c0 3abe
00000070: ecf4 d9bd 686c fc3d f1b1 683e 686f 273e
00000080: acc7 c63c 4c50 38be 9f6d 50be 8ea1 88bd
00000090: a8d4 9e3a 111a 003e d407 a93b 5e4a 9cba
000000a0: 41c2 fb3d e789 80bd 0e1b 423d b8b4 e13d
000000b0: 7508 a5bd d2fc fa3d 8f3d fbbd c1c5 343d
000000c0: 8f2c 6dbc 6a01 033c 3149 653e 9dd4 793e
000000d0: a6a4 a43d 72f4 253d 3a39 7fbd 545e a63d
000000e0: acdf ca3d 9944 1f3e 0bce c9bd 4895 84bd
000000f0: 42bf 863d d4f5 543d 9d59 8f3d bbdc 93bd
00000100: c4b7 5fbd cc5e d13b 0e4d bc3d 773c 58bd
00000110: 32af 71be db64 333c 379f 933d 6097 d03d
00000120: c5f6 77be 1600 14bd 8839 79be ea97 633e
00000130: 1a95 91bd de22 07be 6566 92bc 40ae da3c
00000140: 9d25 0cbd 3870 3bbd 78b7 c93d 71ae b03d
00000150: b2d0 3e3e 1e75 59be 89d4 2d3c ea16 3c3d
00000160: 675b 0abd ee07 ab3e 8000 23bc 874d f6bd
00000170: f30a 8f3d f0c0 133e 7765 d63d 06bf 39bd
00000180: 0f4b 2a3d 06c2 de3d 963a 2b3e 204b ecbd
00000190: 8930 303d a81b 09be e5c1 73bd 8217 ee3d
000001a0: b8a9 c43c 1478 ce3c fee8 8cbe a89e 983d
000001b0: 123c 543d de4e 63bd 22f8 28be 1eeb 37bd
000001c0: dcd2 bbbd 24eb 00bd 816d 193e 71d9 0d3e
000001d0: 8069 46be d6b6 6dbd 6a3c 113e c43e c53c
000001e0: dcef 873e e95d bdbc 461f bd3c 02bf d2bc
000001f0: 44b4 46be 2483 0cbe 31b7 6a3e f6ae 49bd
00000200: 7279 943d 7a83 893d 3079 a93d 3659 16bd
00000210: a7a8 e9bd e782 083d 87d6 31bc bcd3 073d
00000220: 212f 3a3d 4ef8 c23d bca2 273d 50fa 1a3a
00000230: 0ffe 42be 8e87 b63d 3623 3e3e 0f07 7cbc

iris.conv1.bias f4 [16]
0.00015621717 -0.0001419425 9.235326e-05 0.00017293794 -0.0001509996 -0.00016578728 -6.9460475e-05 0.00019065844
0.00017878864 0.00014284252 -6.3544845e-05 0.00018738792 -0.00015680233 5.5801964e-05 0.00016430803 -6.62838e-05
00000000: 3ace 2339 66d6 14b9 c7ad c138 ad56 3539
00000010: a555 1eb9 2fd7 2db9 4fab 91b8 7ceb 4739
00000020: 3679 3b39 ffc7 1539 6143 85b8 907d 4439
00000030: 4e6b 24b9 e70c 6a38 1a4a 2c39 d801 8bb8

iris.bn1.weight f4 [16]
0.99987566 1.0000885 0.9998008 1.0001957 0.9998118 1.0001813 1.0000534 1.0001991
0.99980396 1.0001354 1.0001942 0.9998081 1.0001794 0.9997999 0.9999223 0.99982244
00000000: daf7 7f3f e602 803f f2f2 7f3f 6a06 803f
00000010: abf3 7f3f f105 803f c001 803f 8606 803f
00000020: 27f3 7f3f 7004 803f 5d06 803f 6cf3 7f3f
00000030: e105 803f e3f2 7f3f e8fa 7f3f 5df4 7f3f

iris.bn1.bias f4 [16]
-4.1465748e-05 0.00012741986 -0.00019433865 0.00018692017 0.0001592323 -5.003669e-05 -0.00019660941 -0.00020006762
-0.00011224038 0.00018803532 0.0001933377 0.00019596491 0.00013815371 0.00020012684 -0.00012530887 -0.00019657632
00000000: 82eb 2db8 029c 0539 62c7 4bb9 0000 4439
00000010: 98f7 2639 7dde 51b8 f028 4eb9 3ec9 51b9
00000020: 9862 ebb8 592b 4539 b2ba 4a39 ee7b 4d39
00000030: 5bdd 1039 24d9 5139 5865 03b9 0e20 4eb9

iris.bn1.running_mean f4 [16]
0.017178506 -0.00040940475 -0.043280758 -0.016694257 0.021882761 0.051571123 0.024543036 -0.010762861
-0.04318997 0.03876754 0.037835546 -0.024841104 -0.01967577 0.0012500836 0.02252353 0.023495656
00000000: f0b9 8c3c 60a5 d6b9 2a47 31bd 65c2 88bc
00000010: 7a43 b33c 3e3c 533d 7a0e c93c b656 30bc
00000020: f7e7 30bd b6ca 1e3d 72f9 1a3d 927f cbbc
00000030: 152f a1bc d8d9 a33a 4483 b83c f679 c03c

iris.bn1.running_var f4 [16]
0.6605553 0.65688336 0.6752396 0.6601162 0.6615502 0.68058324 0.6614924 0.65817124
0.674678 0.6697672 0.67011595 0.66180414 0.661633 0.6582302 0.6615782 0.66179365
00000000: 271a 293f 8229 283f 81dc 2c3f 60fd 283f
00000010: 5b5b 293f b43a 2e3f 9157 293f e97d 283f
00000020: b3b7 2c3f dd75 2b3f b88c 2b3f ff6b 293f
00000030: c860 293f c681 283f 305d 293f 4f6b 293f

iris.conv2.weight f4 [32, 16, 3, 3]
-0.19084942 -0.07092353 -0.020483602 -0.00860047 0.14101952 0.07797229 0.031715278 0.016913816
-0.054796573 -0.016048314 0.013779928 -0.13371532 -0.03682097 -0.05510252 0.039977126 -0.040389482
-0.014663454 -0.009442711 0.02271415 0.06361171 -0.15265988 0.08236325 -0.102220505 0.03248037
0.059668317 0.20833558 -0.02345856 -0.07158675 -0.01341439 0.0015768121 0.02873224 -0.03504661
-0.06618383 -0.027723923 0.11571999 -0.12345245 0.0036079613 0.034251157 0.01167178 -0.14066806
0.032140583 0.009530167 -0.014985568 -0.14727612 0.13581929 -0.21616918 0.06289036 0.014290699
0.0048122597 -0.047872853 0.04039985 -0.073763765 -0.10319141 -0.06292592 0.1113741 0.14437011
0.016996149 -0.06120246 -0.07431679 0.05512037 0.070009984 -0.106313735 0.0027148018 -0.016950728
0.04341857 0.039163448 -0.0634348 0.033163063 -0.020789968 0.09655949 0.08837582 0.1398428
-0.14706896 -0.022332279 0.030623022 0.028844643 0.058216054 -0.060554527 0.027322197 -0.0745674
0.11344363 -0.06881184 0.059334714 -0.037603956 -0.17553315 0.030554939 -0.108567365 -0.08111277
-0.10971325 0.0064299596 -0.07129823 -0.04850214 -0.0031923142 -0.08471787 -0.022799954 -0.016652111
0.06738927 0.05388594 0.058933645 -0.019800315 -0.17319071 -0.12901227 0.06593704 -0.12970668
0.02284386 0.016679028 -0.032651275 -0.0050852755 -0.010755937 0.094813496 -0.014454418 -0.102061264
-0.091990896 -0.19029264 -0.088921845 0.0039185747 -0.11555053 0.12896107 0.05630768 -0.027129425
-0.008495204 0.09856256 0.045066543 -0.01709832 -0.06559436 0.03164225 -0.0036746452 -0.107565075
-0.017305031 -0.15900582 0.039552495 -0.07519738 -0.07529822 -0.053606097 0.099697426 0.107456036
-0.027293542 -0.07349946 0.024300147 -0.034742996 0.010375605 0.052155722 0.045504067 0.026379015
0.124891676 0.016879797 0.13111319 0.12810598 -0.119720675 0.06600043 -0.045173276 -0.18529771
-0.10165224 -0.05994527 -0.059440535 0.09503357 -0.037063874 0.033011332 -0.04610693 -0.01969419
0.008441317 0.0696045 0.034614366 -0.030126581 0.068346575 -0.0036409558 0.026655147 -0.045663822
-0.020624593 0.04098359 -0.0871411 -0.08376694 -0.1319601 0.03636748 0.044224616 -0.06804349
-0.041442115 0.11222566 -0.061536252 0.055111784 0.006111445 -0.0027707329 0.054562785 -0.07154538
-0.11084158 0.1406361 -0.08551865 -0.12405117 -0.07880194 -0.08509211 0.009365143 -0.12250673
0.12765813 -0.01997166 0.05503601 0.057282344 -0.15286547 0.030855691 -0.0287155 0.19924843
-0.07516551 -0.07028142 -0.0590392 0.053167097 -0.041460756 0.05585345 0.103478216 -0.13164145
-0.06920285 0.15360361 0.0047284914 -0.081095375 -0.060097422 0.047776267 -0.049376126 -0.111242086
0.16189516 -0.043558747 0.063560784 -0.02326353 0.20725341 0.12182609 0.044144724 -0.12875779
0.05701039 -0.07178734 0.017601173 0.0031617123 0.048503533 -0.046765517 0.1559217 -0.18085045
0.049211275 -0.15178573 -0.06945101 0.07165553 0.016768051 -0.04744951 0.04387882 -0.14349234
0.051348936 0.012068148 -0.031431165 0.033236638 -0.1304049 -0.06736375 0.0006893381 0.0033688792
0.18566962 -0.10152608 -0.15716982 0.15278772 -0.06360822 0.03346425 -0.0699328 0.024526227
00000000: 086e 43be 5b40 91bd 3acd a7bc fce8 0cbc
00000010: 6c67 103e f0af 9f3d e1e7 013d d88e 8a3c
00000020: 5f72 60bd c177 83bc 35c5 613c abec 08be
00000030: 96d1 16bd 2eb3 61bd 0ebf 233d 716f 25bd
00000040: fc3e 70bc 9ab5 1abc 0613 ba3c db46 823d
00000050: df52 1cbe 10ae a83d fc58 d1bd 230a 053d
00000060: c466 743d ec55 553e 2b2c c0bc 139c 92bd
00000070: 08c8 5bbc 09ad ce3a e05f eb3c 098d 0fbd
00000080: 638b 87bd 481d e3bc 9afe ec3d a3d4 fcbd
00000090: 8c73 6c3b f14a 0c3d fe3a 3f3c 4a0b 10be
000000a0: d8a5 033d 6b24 1c3c 0786 75bc 8dcf 16be
000000b0: 3614 0b3e 745b 5dbe a9cc 803d 8923 6a3c
000000c0: 29b0 9d3b 5316 44bd 507a 253d 7511 97bd
000000d0: 0556 d3bd 4edf 80bd 1b18 e43d c2d5 133e
000000e0: 823b 8b3c 6eaf 7abd 6733 98bd e6c5 613d
000000f0: 6561 8f3d 04bb d9bd d1ea 313b 41dc 8abc
00000100: acd7 313d da69 203d 1bea 81bd fed5 073d
00000110: b94f aabc fbc0 c53d 62fe b43d f332 0f3e
00000120: 3f99 16be 2ff2 b6bc 22dd fa3c 9a4b ec3c
00000130: f573 6e3d 0608 78bd cdd2 df3c cbb6 98bd
00000140: 2255 e83d 39ed 8cbd f508 733d 9b06 1abd
00000150: f6be 33be 5a4e fa3c 9158 debd 741e a6bd
00000160: 57b1 e0bd 69b2 d23b ce04 92bd 2eaa 46bd
00000170: 2536 51bb 9080 adbd f8c6 babc 026a 88bc
00000180: 6303 8a3d 81b7 5c3d 6864 713d 4534 a2bc
00000190: e858 31be cb1b 04be 000a 873d d4d1 04be
000001a0: 0c23 bb3c 75a2 883c 58bd 05bd 62a2 a6bb
000001b0: ab39 30bc 942d c23d 39d2 6cbc 7f05 d1bd
000001c0: b965 bcbd 13dc 42be a81c b6bd 6367 803b
000001d0: c2a5 ecbd 5f0e 043e e2a2 663d 873e debc
000001e0: 782f 0bbc 2bdb c93d b297 383d c711 8cbc
000001f0: 5656 86bd 4e9b 013d 51d2 70bb 144b dcbd
00000200: 48c3 8dbc 6cd2 22be cc01 223d 1501 9abd
00000210: f435 9abd 1192 5bbd 2a2e cc3d e911 dc3d
00000220: b596 dfbc e386 96bd 1a11 c73c ac4e 0ebd
00000230: 71fe 293c 3da1 553d 7962 3a3d ce18 d83c
00000240: 35c7 ff3d 8047 8a3c 8942 063e 372e 033e
00000250: 1d30 f5bd 3c2b 873d 9d07 39bd afbe 3dbe
00000260: 0d2f d0bd 2c89 75bd eb77 73bd f6a0 c23d
00000270: 4ad0 17bd e436 073d 9fda 3cbd b655 a1bc
00000280: 734d 0a3c ce8c 8e3d cbc7 0d3d 05cc f6bc
00000290: 4af9 8b3d 1a9d 6ebb e55b da3c fd09 3bbd
000002a0: e8f4 a8bc 69de 273d 0877 b2bd 008e abbd
000002b0: 8c20 07be 11f6 143d df24 353d 635a 8bbd
000002c0: 35bf 29bd 91d6 e53d 700d 7cbd e5bc 613d
000002d0: 8442 c83b 2f95 35bb 3a7d 5f3d 6286 92bd
000002e0: e900 e3bd e902 103e 6724 afbd 8a0e febd
000002f0: e962 a1bd c644 aebd 4270 193c cfe4 fabd
00000300: d0b8 023e 9b9b a3bc 706d 613d e4a0 6a3d
00000310: c488 1cbe 13c5 fc3c c53c ebbc c807 4c3e
00000320: 60f0 99bd b5ef 8fbd 17d3 71bd bec5 593d
00000330: c1d2 29bd 96c6 643d 63ec d33d 04cd 06be
00000340: 39ba 8dbd 444a 1d3e 76f1 9a3b 5515 a6bd
00000350: b728 76bd 0cb1 433d 9f3e 4abd e4d2 e3bd
00000360: d8c7 253e a86a 32bd 282c 823d 2993 bebc
00000370: 3d3a 543e f57f f93d 19d1 343d 15d9 03be
00000380: ba83 693d 3e05 93bd 5630 903c bb34 4f3b
00000390: a4ab 463d 338d 3fbd f0a9 1f3e dc30 39be
000003a0: c391 493d b86d 1bbe 553c 8ebd 22c0 923d
000003b0: 275d 893c 6b5a 42bd 47ba 333d a8ef 12be
000003c0: 4353 523d 7bb9 453c f7bd 00bd 2423 083d
000003d0: dd88 05be 01f6 89bd b2b4 343a 6ac8 5c3b
000003e0: 2d20 3e3e e8ec cfbd 20f1 20be 6274 1c3e
000003f0: 0745 82bd cf11 093d ee38 8fbd 3aeb c83c

iris.conv2.bias f4 [32]
-2.7190476e-05 -0.00010662923 -0.00011672471 -0.000114464696 0.0001733668 -0.0001784953 0.00016298454 0.00016816703
-0.00016784832 -0.00015911632 0.00017045558 -2.4438486e-06 -8.3834224e-05 -0.00017628251 -6.42269e-05 3.198297e-05
7.2056064e-05 0.00015403003 -0.00014678265 0.00011638831 -0.00013364019 -0.0001759745 0.0001372207 0.00018317669
-7.3855917e-06 -0.00019583513 -0.00014530023 0.00016136536 0.00015539743 0.000108583095 0.00018438822 -0.00014803525
00000000: 1a17 e4b7 229e dfb8 1aca f4b8 c40c f0b8
00000010: ccc9 3539 782a 3bb9 d4e6 2a39 fe55 3039
00000020: 7100 30b9 76d8 26b9 52bc 3239 0001 24b6
00000030: 28d0 afb8 7ad8 38b9 8eb1 86b8 7425 0638
00000040: ce1c 9738 1f83 2139 abe9 19b9 8015 f438
00000050: c421 0cb9 cc85 38b9 e7e2 0f39 1e13 4039
00000060: c0d1 f7b6 1859 4db9 bc5b 18b9 2f34 2939
00000070: 2ef2 2239 1bb7 e338 5658 4139 e939 1bb9

iris.bn2.weight f4 [32]
1.0001804 1.0001271 1.0001708 1.0001614 0.99985313 0.99983823 0.9998222 1.0001726
1.000142 1.0001695 1.0001721 1.0001546 0.9998437 1.000042 0.99981457 0.9998125
1.0002002 0.9999167 1.0001879 0.99983275 1.0001298 0.9998298 0.9998244 0.99983275
1.0001395 1.0001676 0.9998462 1.0001686 1.0001826 0.99981844 0.9998073 1.0001391
00000000: e905 803f 2a04 803f 9905 803f 4a05 803f
00000010: 60f6 7f3f 66f5 7f3f 59f4 7f3f a805 803f
00000020: a704 803f 8e05 803f a405 803f 1105 803f
00000030: c2f5 7f3f 6001 803f d9f3 7f3f b6f3 7f3f
00000040: 8f06 803f 8afa 7f3f 2806 803f 0af5 7f3f
00000050: 4104 803f d9f4 7f3f 7ef4 7f3f 0af5 7f3f
00000060: 9204 803f 7e05 803f ecf5 7f3f 8605 803f
00000070: fc05 803f 1af4 7f3f 5ff3 7f3f 8f04 803f

iris.bn2.bias f4 [32]
0.00018675945 0.00016830016 0.00017525262 0.00016135068 -0.00016555356 -0.00016727239 -0.00017579593 0.00017072159
0.00016678905 0.00017424021 0.0001645115 9.9751465e-05 -0.00017689503 0.000116864925 -0.00018859768 -0.00017338966
0.00019161709 -0.0001633199 0.00017573594 -0.00016856723 0.0001325382 -0.00015836756 -0.0001700664 -0.00016490673
0.00015443962 0.00017130244 -0.00013627735 0.0001692187 0.00016578232 -0.00017267902 -0.00016024045 0.00016293033
00000000: dcd4 4339 bb79 3039 04c4 3739 3e30 2939
00000010: 7298 2db9 d765 2fb9 dc55 38b9 ba03 3339
00000020: 18e4 2e39 40b4 3639 b880 2c39 a931 d138
00000030: e67c 39b9 6115 f538 4ec2 45b9 efcf 35b9
00000040: d2ec 4839 da40 2bb9 c245 3839 6cc1 30b9
00000050: f4f9 0a39 780f 26b9 da53 32b9 d0ea 2cb9
00000060: 12f1 2139 a69f 3339 ace5 0eb9 4d70 3139
00000070: dad5 2d39 2c11 35b9 3806 28b9 47d8 2a39

iris.bn2.running_mean f4 [32]
-0.2870407 -0.11929414 -0.15904772 0.092288405 -0.055897083 -0.050285753 0.008552141 0.014425164
-0.016401526 -0.20130542 0.27635074 -0.11999449 -0.20847942 0.043833762 -0.0530741 -0.009551874
-0.023578897 -0.16684784 -0.011868355 0.074502096 0.006139791 -0.2007827 -0.009656642 -0.2147603
-0.010864234 0.0020072316 0.2049608 -0.2951209 0.21586338 0.029941326 0.014030416 -0.07583763
00000000: 00f7 92be 7c50 f4bd 68dd 22be b401 bd3d
00000010: 57f4 64bd 6ff8 4dbd 471e 0c3c 8657 6c3c
00000020: 7e5c 86bc 0223 4ebe d87d 8d3e acbf f5bd
00000030: a17b 55be 088b 333d 3a64 59bd 777f 1cbc
00000040: 8828 c1bc 29da 2abe 7d73 42bc 8e94 983d
00000050: 4d30 c93b fb99 4dbe e436 1ebc 20ea 5bbe
00000060: e6ff 31bc c28b 033b 3ee1 513e 161a 97be
00000070: 4a0b 5d3e 8347 f53c d4df 653c c250 9bbd

iris.bn2.running_var f4 [32]
0.769393 0.715559 0.927053 0.8218624 0.720914 0.70667386 0.7348367 0.75987095
0.7583138 0.80718136 0.9313494 0.8627798 0.81039655 0.91936153 0.7649176 0.7103991
0.8119953 0.75876933 0.7477882 0.76412195 0.8009443 0.8027454 0.7691923 0.8795849
0.7757681 0.70811015 0.79033774 0.94368535 0.93836206 0.7602585 0.9769769 0.7413431
00000000: f1f6 443f e02e 373f 5853 6d3f 9365 523f
00000010: d28d 383f 94e8 343f 421e 3c3f e786 423f
00000020: da20 423f 70a3 4e3f ea6c 6e3f 23df 5c3f
00000030: 2676 4f3f 475b 6b3f a4d1 433f b7dc 353f
00000040: edde 4f3f b53e 423f 0c6f 3f3f 7f9d 433f
00000050: b00a 4d3f b980 4d3f c9e9 443f 7a2c 613f
00000060: bd98 463f b546 353f 9353 4a3f 5d95 713f
00000070: 7f38 703f 4da0 423f 281b 7a3f a9c8 3d3f

fc.0.weight f4 [128, 96]
0.17628609 -0.014464783 0.058938924 -0.13495897 -0.027483447 0.10074144 0.011335015 -0.015445799
-0.008680565 0.052219886 0.16010784 0.08060713 -0.17163326 0.08883364 -0.06685498 -0.06918575
0.07993875 -0.025487954 0.012841591 0.03463047 0.14546703 -0.042653512 0.15064676 -0.086065546
0.09246792 -0.13290215 -0.041425765 -0.22822484 -0.17926611 -0.07711472 0.08483075 0.061197896
-0.013250779 0.12640867 0.074914575 -0.08375514 -0.04626938 0.03195789 0.041382134 -0.1311599
0.074708976 -0.079323456 -0.05123431 0.09637332 0.09722147 0.17082839 0.094009005 0.13947442
-0.02504559 -0.027426377 -0.09656978 0.06974625 -0.0073232874 -0.04939929 -0.024926234 0.020324947
-0.087956026 -0.07959565 0.032607663 -0.056148507 0.046072096 0.014479216 0.09406593 -0.021032881
0.087226056 -0.04078274 -0.119191766 0.029347988 -0.056288578 0.07808594 0.051265758 -0.043789163
0.05327065 -0.059300136 0.16235277 0.15556827 -0.017279247 0.046593543 0.2396089 0.03704205
0.031697918 0.093158975 0.07163113 0.011540437 -0.044002775 -0.14929758 -0.014305139 -0.026734082
-0.07905534 -0.1041715 -0.10502462 0.09633103 -0.042743027 0.1867446 -0.18795797 -0.14264785
0.09691262 -0.301993 0.009682323 -0.015321308 -0.057785094 -0.20586969 0.13342935 0.06799961
-0.042628713 -0.04564331 -0.106494136 0.12226964 0.040483803 -0.03621699 -0.10583116 -0.13443914
0.032054804 -0.057952978 0.11340576 0.046721403 -0.11571445 0.2696872 0.03606879 0.06594634
-0.05762429 -0.00086313946 0.1160528 -0.031951576 0.25218463 0.24037383 -0.0007764427 0.0294117
0.07730733 0.030082488 0.056437433 0.007415349 0.11378145 0.049398787 -0.06461181 0.24555323
-0.05280343 -0.1396335 0.09414957 0.013445885 -0.065169536 -0.1377581 0.054044213 -0.06712128
0.034316927 -0.08161929 0.13100101 0.07351583 0.036489647 -0.21530119 0.050734542 0.033482287
0.23977005 0.06955402 0.20326667 0.05525659 0.14846833 -0.008459428 0.1266523 0.107161015
0.06899039 -0.03251477 -0.03558401 -0.010986627 -0.07319141 0.24675748 -0.092563294 0.09335476
0.0040857946 0.04823745 0.02719558 0.11978766 -0.19450025 -0.024692027 0.2537121 -0.01639671
0.0022212341 0.07141066 -0.100089304 0.07182102 -0.006804308 0.0152797 -0.07308484 -0.0757869
-0.0006683723 0.0016936801 -0.15289018 -0.11599766 -0.17164758 -0.05041273 0.016390882 -0.05782397
-0.10906261 0.06856659 0.14031705 0.0026014831 -0.040007345 -0.1937045 0.045595765 -0.0319294
0.019813078 -0.0023182817 -0.10128886 -0.01300232 -0.09172928 0.08104638 -0.01943472 0.07600827
-0.14316207 0.05967622 -0.10187416 0.039145228 -0.18879957 0.06092779 -0.02187563 -0.118561275
-0.07516043 -0.012920691 0.045444805 -0.050964117 -0.12647516 -0.042730507 -0.020032112 -0.13205495
-0.08044982 0.04075955 -0.023397468 -0.070093736 0.08051507 0.035597213 0.04158707 0.10139217
0.13867892 -0.14475322 0.19863707 0.02987254 0.090162314 0.00289892 0.06539681 0.031375065
-0.072405376 -0.057370283 -0.1184739 -0.06956007 -0.023995621 0.0072998703 -0.074919045 -0.027120069
0.17290646 -0.07403309 -0.14714035 -0.09588957 0.045004737 0.055314798 -0.10837246 -0.009872375
00000000: 5784 343e b2fd 6cbc f169 713d af32 0abe
00000010: f724 e1bc 8751 ce3d 80b6 393c 6010 7dbc
00000020: ee38 0ebc 85e4 553d 4ff3 233e 5a15 a53d
00000030: a1c0 2fbe 69ee b53d 44eb 88bd 42b1 8dbd
00000040: edb6 a33d 1dcc d0bc 8965 523c aed8 0d3d
00000050: 4ff5 143e 73b5 2ebd 2543 1a3e 2243 b0bd
00000060: d25f bd3d 8017 08be 10ae 29bd c6b3 69be
00000070: 8991 37be 53ee 9dbd bfbb ad3d a5aa 7a3d
00000080: cc19 59bc 4671 013e d06c 993d d187 abbd
00000090: f684 3dbd 47e6 023d 5080 293d c84e 06be
000000a0: 0501 993d 5674 a2bd 11db 51bd 605f c53d
000000b0: 0d1c c73d a3ed 2e3e cb87 c03d 62d2 0e3e
000000c0: 692c cdbc 48ad e0bc 60c6 c5bd 1fd7 8e3d
000000d0: 30f8 efbb e956 4abd 1a32 ccbc 8180 a63c
000000e0: 4a22 b4bd 0b03 a3bd 9d8f 053d fafb 65bd
000000f0: 18b6 3c3d 3c3a 6d3c a3a5 c03d 264d acbc
00000100: 93a3 b23d cd0b 27bd d01a f4bd 316b f03c
00000110: da8e 66bd 85eb 9f3d 0bfc 513d 445c 33bd
00000120: 5332 5a3d b3e4 72bd ce3f 263e 4a4d 1f3e
00000130: 358d 8dbc dfd8 3e3d 095c 753e 68b9 173d
00000140: add5 013d 22ca be3d 58b3 923d 1a14 3d3c
00000150: 413c 34bd 77e1 18be 1a60 6abc 6f01 dbbc
00000160: c4e7 a1bd de57 d5bd 2617 d7bd 3449 c53d
00000170: 5013 2fbd fa39 3f3e 0e78 40be 4712 12be
00000180: 207a c63d d49e 9abe 9ba2 1e3c 3906 7bbc
00000190: 10b0 6cbd 81cf 52be b4a1 083e 6143 8b3d
000001a0: 729b 2ebd 7bf4 3abd 9919 dabd 8168 fa3d
000001b0: 58d2 253d 4458 14bd 02be d8bd 6aaa 09be
000001c0: e64b 033d 1a60 6dbd 4741 e83d f15e 3f3d
000001d0: b3fb ecbd 7114 8a3e debc 133d e00e 873d
000001e0: 7307 6cbd 4f44 62ba 17ad ed3d a8df 02bd
000001f0: 581e 813e 8f24 763e 308a 4bba cef0 f03c
00000200: 4e53 9e3d 8d6f f63c f02a 673d 75fc f23b
00000210: 4006 e93d 6256 4a3d 3253 84bd 4e72 7b3e
00000220: 6948 58bd 16fc 0ebe 7dd1 c03d 214c 5c3c
00000230: 9b77 85bd 7610 0dbe 775d 5d3d e276 89bd
00000240: e88f 0c3d 0428 a7bd 2125 063e 788f 963d
00000250: 2b76 153d ea77 5cbe 06cf 4f3d b924 093d
00000260: 4886 753e 5772 8e3d 2325 503e bc54 623d
00000270: 1508 183e 6a99 0abc 24b1 013e 3c77 db3d
00000280: d54a 8d3d 352e 05bd 8ac0 11bd 4101 34bc
00000290: 61e5 95bd fead 7c3e d391 bdbd c830 bf3d
000002a0: 21e2 853b a294 453d 44c9 de3c 3c53 f53d
000002b0: 132b 47be ef46 cabc 8de6 813e 6552 86bc
000002c0: 2092 113b c13f 923d 9ffb ccbd e616 933d
000002d0: acf6 debb b557 7a3c 81ad 95bd 2a36 9bbd
000002e0: b535 2fba 79fe dd3a 3e8f 1cbe 2e90 edbd
000002f0: 62c4 2fbe 947d 4ebd 2c46 863c d4d8 6cbd
00000300: 385c dfbd a46c 8c3d 46af 0f3e a57d 2a3b
00000310: bede 23bd 795a 46be a0c2 3a3d 67c8 02bd
00000320: 094f a23c 50ee 17bb 8970 cfbd af07 55bc
00000330: 90dc bbbd a5fb a53d 9035 9fbc 39aa 9b3d
00000340: 1499 12be 0d6f 743d 66a3 d0bd bf56 203d
00000350: ad54 41be 6b8f 793d 8534 b3bc 41d0 f2bd
00000360: b6ed 99bd 4eb1 53bc 5524 3a3d c0bf 50bd
00000370: b482 01be 2f06 2fbd 621a a4bc 6a39 07be
00000380: e0c2 a4bd 7cf3 263d 0cac bfbc 4e8d 8fbd
00000390: 16e5 a43d 62ce 113d 3457 2a3d b3a6 cf3d
000003a0: d901 0e3e 303a 14be 8467 4b3e 42b7 f43c
000003b0: 05a7 b83d cffb 3d3b c3ee 853d 2483 003d
000003c0: 4549 94bd 1afd 6abd 72a2 f2bd 8375 8ebd
000003d0: 7792 c4bc c033 ef3b 286f 99bd e82a debc
000003e0: 640e 313e a99e 97bd f6ab 16be c061 c4bd
000003f0: e356 383d c591 623d 61f2 ddbd bebf 21bc

fc.0.bias f4 [128]
0.00010914168 -0.00012647384 0.0 0.0 0.0001994627 0.0 -5.532503e-05 0.00017190218
0.00018312714 -5.211932e-05 0.00012526955 0.0 2.8010625e-05 0.0 2.7898372e-05 -0.00019427294
-8.371046e-05 -0.00016700581 -0.00019821395 0.0 -4.910728e-05 0.000107903456 -0.00019999081 0.0
-0.00016371143 -1.1474818e-05 0.00018378106 -0.00013616116 -0.00018850683 0.0 0.000110614434 8.112504e-06
-0.00010870451 0.00016700577 -0.0001613622 0.00015470563 4.431935e-05 0.0 -5.22755e-05 0.0
-9.397346e-05 0.0 0.0 -0.0001963586 0.0 -5.3872478e-05 0.0 0.0
0.0 0.0 4.7694455e-05 0.0 0.00016700555 0.0 0.00014548561 -0.00018228372
0.0 2.211673e-05 -0.00012285935 9.0017245e-05 0.00014068704 0.0 0.0 0.0
0.0 0.0 0.00020013563 0.00011201864 -0.00011912302 0.0 4.0562576e-05 8.590068e-05
-1.7599847e-05 9.752151e-05 0.0 -0.00016707658 0.0 -5.345903e-05 6.4327796e-05 -0.00017974472
0.00016691834 0.00018051788 0.0 -7.4783806e-05 0.0 0.0 -0.00013184374 -0.00012293842
0.0 0.0 3.9203816e-05 -7.441366e-05 -9.065953e-05 0.0 -0.00016700613 7.216114e-05
-0.00017826396 -0.0001793525 -2.9233717e-05 -3.286281e-05 0.0 0.0 0.00013609174 -5.6533536e-05
0.00010457425 0.0 0.0 -1.7643539e-05 -5.3010794e-05 -0.00018682261 0.0 5.4021257e-05
-0.00015558137 0.00016700558 0.0 0.0 -0.00013265706 0.0 -0.00016700583 7.316118e-05
0.0 3.3089666e-05 2.0758896e-05 0.0 0.0 0.0001670053 0.0 -0.00010935031
00000000: fee2 e438 109e 04b9 0000 0000 0000 0000
00000010: dc26 5139 0000 0000 cc0c 68b8 a440 3439
00000020: d105 4039 b29a 5ab8 ca5a 0339 0000 0000
00000030: 5cf8 ea37 0000 0000 4c07 ea37 bfb5 4bb9
00000040: b68d afb8 481e 2fb9 a7d7 4fb9 0000 0000
00000050: 8af8 4db8 3a4a e238 a0b4 51b9 0000 0000
00000060: f4a9 2bb9 f883 40b7 5ab5 4039 7cc6 0eb9
00000070: eba9 45b9 0000 0000 acf9 e738 f01a 0837
00000080: 4af8 e3b8 451e 2f39 5633 29b9 7a38 2239
00000090: 8ae3 3938 0000 0000 6442 5bb8 0000 0000
000000a0: 9e13 c5b8 0000 0000 0000 0000 9ce5 4db9
000000b0: 0000 0000 22f5 61b8 0000 0000 0000 0000
000000c0: 0000 0000 0000 0000 880b 4838 0000 0000
000000d0: 361e 2f39 0000 0000 7f8d 1839 6a23 3fb9
000000e0: 0000 0000 5187 b937 ced3 00b9 a4c7 bc38
000000f0: 6485 1339 0000 0000 0000 0000 0000 0000
00000100: 0000 0000 0000 0000 80db 5139 8deb ea38
00000110: afd1 f9b8 0000 0000 bc21 2a38 9425 b438
00000120: 62a3 93b7 7684 cc38 0000 0000 4731 2fb9
00000130: 0000 0000 3239 60b8 b9e7 8638 db79 3cb9
00000140: cd06 2f39 6649 3d39 0000 0000 40d5 9cb8
00000150: 0000 0000 0000 0000 893f 0ab9 08e9 00b9
00000160: 0000 0000 0000 0000 c76e 2438 880e 9cb8
00000170: 7720 beb8 0000 0000 5e1e 2fb9 3855 9738
00000180: 5eec 3ab9 9210 3cb9 ee3a f5b7 2cd6 09b8
00000190: 0000 0000 0000 0000 d9b3 0e39 6c1e 6db8
000001a0: df4e db38 0000 0000 0000 0000 3601 94b7
000001b0: e857 5eb8 d0e5 43b9 0000 0000 e294 6238
000001c0: 8e23 23b9 381e 2f39 0000 0000 0000 0000
000001d0: dc19 0bb9 0000 0000 491e 2fb9 1c6e 9938
000001e0: 0000 0000 c2c9 0a38 6423 ae37 0000 0000
000001f0: 0000 0000 251e 2f39 0000 0000 0053 e5b8

fc.2.weight f4 [128]
0.9998021 0.9998183 0.9998002 0.9998002 1.0000771 0.9998002 0.99988914 1.000175
0.9998223 0.9999326 0.9998031 0.9998002 0.99995464 0.9998002 1.0000288 0.99981076
1.0001191 0.999833 0.9998002 0.9998002 0.9998076 1.000053 0.9998163 0.9998002
0.9999668 1.0001322 0.9999534 0.99983317 1.0000385 0.9998002 0.9998027 1.0000331
0.9999087 1.000165 0.9999439 0.99979985 0.9999644 0.9998002 1.0000328 0.9998002
0.99987924 0.9998002 0.9998002 0.9998033 0.9998002 0.9998119 0.9998002 0.9998002
0.9998002 0.9998002 0.99989706 0.9998002 1.0000297 0.9998002 0.99980116 0.9998
0.9998002 0.9998155 1.0001873 0.99981844 0.99980414 0.9998002 0.9998002 0.9998002
0.9998002 0.9998002 1.0000346 1.0001415 0.99982744 0.9998002 0.99993366 1.0002
1.0000372 1.0001566 0.9998002 0.9998002 0.9998002 0.9999144 0.99995506 0.99985504
0.9998012 0.9998033 0.9998002 1.0001179 0.9998002 0.9998002 0.99980664 1.0000945
0.9998002 0.9998002 0.9999548 0.99982566 0.9999661 0.9998002 0.99981123 0.99995124
1.0001525 1.0001622 1.0000445 0.99997306 0.9998002 0.9998002 0.9998487 0.9999043
0.9998029 0.9998002 0.9998002 0.99982417 0.9999177 0.9998002 0.9998002 0.9998334
1.000032 1.0001669 0.9998002 0.9998002 0.9998096 0.9998002 0.9998329 0.9998077
0.9998002 0.9998056 1.0000287 0.9998002 0.9998002 0.99980634 0.9998002 0.99980444
00000000: 08f3 7f3f 18f4 7f3f e8f2 7f3f e8f2 7f3f
00000010: 8702 803f e8f2 7f3f bcf8 7f3f bc05 803f
00000020: 5bf4 7f3f 95fb 7f3f 19f3 7f3f e8f2 7f3f
00000030: 07fd 7f3f e8f2 7f3f f200 803f 99f3 7f3f
00000040: e703 803f 0ef5 7f3f e8f2 7f3f e8f2 7f3f
00000050: 64f3 7f3f bd01 803f f6f3 7f3f e8f2 7f3f
00000060: d3fd 7f3f 5504 803f f2fc 7f3f 11f5 7f3f
00000070: 4301 803f e8f2 7f3f 12f3 7f3f 1601 803f
00000080: 04fa 7f3f 6805 803f 53fc 7f3f e2f2 7f3f
00000090: abfd 7f3f e8f2 7f3f 1301 803f e8f2 7f3f
000000a0: 16f8 7f3f e8f2 7f3f e8f2 7f3f 1cf3 7f3f
000000b0: e8f2 7f3f acf3 7f3f e8f2 7f3f e8f2 7f3f
000000c0: e8f2 7f3f e8f2 7f3f 41f9 7f3f e8f2 7f3f
000000d0: f900 803f e8f2 7f3f f8f2 7f3f e5f2 7f3f
000000e0: e8f2 7f3f e9f3 7f3f 2306 803f 1af4 7f3f
000000f0: 2af3 7f3f e8f2 7f3f e8f2 7f3f e8f2 7f3f
00000100: e8f2 7f3f e8f2 7f3f 2201 803f a304 803f
00000110: b1f4 7f3f e8f2 7f3f a7fb 7f3f 8e06 803f
00000120: 3801 803f 2205 803f e8f2 7f3f e8f2 7f3f
00000130: e8f2 7f3f 64fa 7f3f 0efd 7f3f 80f6 7f3f
00000140: f9f2 7f3f 1cf3 7f3f e8f2 7f3f dd03 803f
00000150: e8f2 7f3f e8f2 7f3f 54f3 7f3f 1903 803f
00000160: e8f2 7f3f e8f2 7f3f 0afd 7f3f 93f4 7f3f
00000170: c7fd 7f3f e8f2 7f3f a1f3 7f3f cefc 7f3f
00000180: ff04 803f 5105 803f 7501 803f 3cfe 7f3f
00000190: e8f2 7f3f e8f2 7f3f 16f6 7f3f baf9 7f3f
000001a0: 15f3 7f3f e8f2 7f3f e8f2 7f3f 7af4 7f3f
000001b0: 9bfa 7f3f e8f2 7f3f e8f2 7f3f 15f5 7f3f
000001c0: 0c01 803f 7805 803f e8f2 7f3f e8f2 7f3f
000001d0: 86f3 7f3f e8f2 7f3f 0df5 7f3f 66f3 7f3f
000001e0: e8f2 7f3f 43f3 7f3f f100 803f e8f2 7f3f
000001f0: e8f2 7f3f 4ff3 7f3f e8f2 7f3f 2ff3 7f3f

fc.2.bias f4 [128]
5.141419e-05 -2.7707705e-05 -8.332922e-05 -9.477199e-05 -7.91175e-05 3.1300995e-05 0.000104037674 0.00011182676
-7.242148e-05 0.00018879428 0.00018817591 0.00019786166 -0.00019114492 -0.00014812952 0.00019569683 0.000102857695
-0.00018309965 -0.0001992824 0.00018894163 0.00018930319 -0.00018434883 -0.00012407805 -0.000118316944 -7.916051e-05
7.805227e-05 -0.00017720748 -0.00019974164 0.00018514215 0.00019834057 -0.00016301752 -0.00014762813 -0.00020012294
4.4238037e-05 -0.0001775765 4.8770526e-05 -0.00018677236 -0.00019644405 0.00019904856 0.00019751987 8.840822e-05
-0.00019440844 0.00019021265 0.00016458635 -7.8554396e-05 -2.6368012e-05 0.00019570101 -0.00020000806 -0.00019032124
0.00018961656 -0.00019801606 -0.00018962286 -0.0001928948 0.00015846544 9.1411704e-05 0.00014794676 0.00020011386
-0.00019903685 -0.00014712547 -9.5431984e-05 -3.0272968e-05 -2.6281581e-05 0.00017804623 0.0001623318 0.000106507796
-5.9514798e-05 6.141841e-05 9.8822355e-05 3.2881973e-05 -4.246922e-05 -5.015259e-05 0.00017525475 0.0001910342
-0.0001263397 0.00019401094 0.00012210014 -0.0001885556 2.8944189e-05 -0.00011723259 -0.00019564177 -0.00017818781
4.5680932e-05 -0.00011071865 0.000101409096 0.0001378848 0.00019446325 0.00014813278 -0.00014245424 -0.00018828141
0.00017676261 3.1430383e-05 0.00015575394 0.00017599977 -0.00018897484 -9.366476e-05 -4.5620538e-05 -0.00020011442
-0.00018056863 0.00019698696 0.00019160126 0.00017946458 -8.877067e-05 -0.00018809848 -0.00012280408 -5.704183e-05
-0.00018797087 -0.00019775156 -0.00018835705 0.00017838328 -0.0001894401 0.0001992175 3.1407864e-05 0.00018726244
0.00010214584 -0.00017940931 2.7066337e-05 0.00019322083 0.00019415519 0.00015406517 -5.7669407e-05 -8.0131664e-05
7.6926706e-05 -2.8893155e-05 -0.00017792304 -0.00012562625 -5.4259475e-05 5.1752006e-05 -4.5011682e-05 -0.00017707421
00000000: 91a5 5738 d86d e8b7 09c1 aeb8 53c0 c6b8
00000010: e2eb a5b8 3049 0338 cd2e da38 8984 ea38
00000020: fce0 97b8 14f7 4539 1651 4539 1679 4f39
00000030: 136e 48b9 3753 1bb9 f833 4d39 4eb5 d738
00000040: 70fe 3fb9 76f6 50b9 a21e 4639 b07f 4639
00000050: c34d 41b9 f31a 02b9 ed20 f8b8 fa02 a6b8
00000060: feaf a338 c5d0 39b9 bd71 51b9 b822 4239
00000070: a4f9 4f39 afef 2ab9 a0cc 1ab9 18d8 51b9
00000080: 3b8c 3938 d433 3ab9 f48e 4c38 53d8 43b9
00000090: 8cfc 4db9 b1b7 5039 561d 4f39 cd67 b938
000000a0: 1eda 4bb9 d273 4739 d094 2c39 92bd a4b8
000000b0: e030 ddb7 1735 4d39 41b9 51b9 f890 47b9
000000c0: cfd3 4639 88a2 4fb9 80d5 46b9 ce43 4ab9
000000d0: be29 2639 49b4 bf38 2822 1b39 a8d5 5139
000000e0: 8cb4 50b9 b145 1ab9 a822 c8b8 b4f2 fdb7
000000f0: 4477 dcb7 ecb1 3a39 9c37 2a39 f05c df38
00000100: 879f 79b8 c2cd 8038 d93e cf38 c0ea 0938
00000110: fa20 32b8 ef5a 52b8 97c4 3739 5a50 4839
00000120: 0e7a 04b9 6a6f 4b39 0208 0039 02b7 45b9
00000130: 2ccd f237 c4da f5b8 3025 4db9 edd7 3ab9
00000140: 8799 3f38 9f31 e8b8 98ab d438 2b95 1039
00000150: d5e8 4b39 1754 1b39 c55f 15b9 686d 45b9
00000160: 5a59 3939 1ed4 0338 e151 2339 948c 3839
00000170: 8c27 46b9 e36d c4b8 ae58 3fb8 ced5 51b9
00000180: 0657 3db9 498e 4e39 92e8 4839 a82e 3c39
00000190: 642a bab8 4d3c 45b9 f8c4 00b9 3340 6fb8
000001a0: 0c1a 45b9 885b 4fb9 b681 45b9 660c 3b39
000001b0: 71a4 46b9 0ae5 5039 f0bb 0338 e15b 4439
000001c0: 2137 d638 d21f 3cb9 840c e337 529b 4a39
000001d0: 2396 4b39 8e8c 2139 0ee2 71b8 5c0c a8b8
000001e0: b653 a138 945f f2b7 da90 3ab9 8aba 03b9
000001f0: ab94 63b8 4b10 5938 edca 3cb8 ffac 39b9
