model.pth (torch, 120917 bytes, 32 tensors)

finger.conv1.weight f4 [16, 3, 3, 3]
0	0x3d882488	0.06647593
1	0x3de41c1c	0.11138174
2	0xbe34032b	-0.17579333
3	0x3e093c7e	0.13401982
4	0x3d965985	0.07341293
5	0x3cc57b57	0.024106665
6	0x3e0fe2e5	0.14051397
7	0xbe0c67f2	-0.13711527
8	0xbe1f7f7e	-0.15575978
9	0x3e7180d7	0.23584305
10	0x3e19a76b	0.15005271
11	0x3e02e380	0.12782097
12	0xbe02099e	-0.12698981
13	0xbdd6ace1	-0.10482193
14	0x3d8e51a6	0.06949167
15	0xbd083c23	-0.033260476
16	0x3e74f53c	0.23921674
17	0xbe07f98d	-0.1327879
18	0x3dc2679d	0.09492419
19	0xbd0cf0f0	-0.034409463
20	0x3b2de472	0.002653387
21	0xbdbd6951	-0.09248603
22	0x3e5d17a8	0.21591055
23	0x3c969c08	0.018384948
24	0xbcb14cb8	-0.021643028
25	0xbd0121f8	-0.031526536
26	0xbeba0cf6	-0.36338013
27	0xbde11a6c	-0.10991368
28	0xbe863521	-0.2621241
29	0x3dd69025	0.10476712
30	0x3d158534	0.036503986
31	0xbd51bf89	-0.051208053
32	0xbd0a8d5d	-0.03382622
33	0xbdcbb90f	-0.099474065
34	0x3d15a522	0.036534436
35	0xbde0305b	-0.10946723
36	0xbea4d2af	-0.3219199
37	0x3d9baad8	0.07600945
38	0x3c6c5b42	0.014426054
39	0xbd3bb9b0	-0.045831382
40	0x3d7d223f	0.061800238
41	0xbe1cd432	-0.15315321
42	0x3e6e262d	0.2325675
43	0xbb86bb43	-0.004111679
44	0x3b3ea9b2	0.0029092846
45	0xbd6ba920	-0.057534337
46	0x3cec55d9	0.02884953
47	0xbd11abae	-0.035564117
48	0x3e8671c7	0.2625868
49	0xbca82dce	-0.020529654
50	0xbd84ec2a	-0.06490357
51	0xbe4949e0	-0.19657087
52	0x3e6c2bcb	0.2306358
53	0x3e2655c0	0.16243649
54	0x3cea99e3	0.028637832
55	0xbcf67dbb	-0.03008925
56	0x3d8b7d52	0.06811012
57	0x3dea647a	0.11444946
58	0x3df1699a	0.1178772
59	0xbe31b2da	-0.17353383
60	0xbcfcb474	-0.030847766
61	0xbdf46c18	-0.1193468
62	0x3c62f500	0.013852358
63	0xbe01e209	-0.12683882
64	0xbcafae18	-0.021445319
65	0x3c7ce66c	0.015435796
66	0x3e38f430	0.180619
67	0xbb7189b4	-0.003685576
68	0xbd569341	-0.052386526
69	0xbcc3798e	-0.023861673
70	0x3e3d5428	0.18489134
71	0x3e3ecf69	0.18633808
72	0xbdb3dc3f	-0.08782243
73	0xbd616fbc	-0.0550382
74	0x3e1a9691	0.15096499
75	0xbe915939	-0.28388384
76	0x3d3bf1d3	0.04588492
77	0x3ca9aa80	0.020711184
78	0x3ca69f2e	0.020339575
79	0xbe1c2578	-0.15248668
80	0x3e2e04d3	0.16994028
81	0xbcd36929	-0.02580698
82	0x3e281e00	0.16417694
83	0x3e533de5	0.2062908
84	0xbd50deb9	-0.050993655
85	0x3c1a1f23	0.009406838
86	0xbd43b695	-0.047781546
87	0xbd743c9c	-0.059628114
88	0xbe2720ea	-0.1632115
89	0x3db92776	0.0904073
90	0x3db0984c	0.08622798
91	0x3ca2d303	0.019876009
92	0x3e0e098a	0.13870826
93	0x3d8a5e2c	0.06756243
94	0x3e0b0690	0.13576722
95	0x3dc05a65	0.093922414
96	0x3ba03025	0.004888552
97	0x3d1ccfad	0.038283993
98	0x3d2c6199	0.042085264
99	0xbcbe2407	-0.023210539
100	0x3d414f3b	0.0471947
101	0xbd9d1588	-0.076701224
102	0xbd423f1b	-0.047423463
103	0xbc2674ed	-0.010159713
104	0xbd3b88af	-0.04578465
105	0xbdac0baa	-0.08400662
106	0x3e06adb5	0.13152201
107	0x3e4c73e3	0.19966082
108	0x3e854eb6	0.26036614
109	0x3df734f7	0.12070649
110	0x3e05bef2	0.13061121
111	0xbdc6c30b	-0.0970517
112	0x3dbcd769	0.09220774
113	0x3d35a7d5	0.04434951
114	0xbe0386fb	-0.1284446
115	0xbdef3e2e	-0.11681782
116	0x3e4e6b95	0.20158227
117	0x3d7dafaa	0.061935104
118	0x3d04431a	0.032290556
119	0xbe456daa	-0.19280115
120	0xbd29a0c5	-0.041413087
121	0xbd1b3d89	-0.03790048
122	0x3d301282	0.0429864
123	0x3dcde8be	0.10054158
124	0xbd3de284	-0.0463586
125	0xbc98c844	-0.018650182
126	0xbe0ab6ce	-0.13546297
127	0xbe505d83	-0.20348172
128	0xbe1df2a4	-0.15424591
129	0xbd654dd4	-0.055982426
130	0xbe2f624e	-0.17127344
131	0xbdd29eaa	-0.10284169
132	0x3d127241	0.035753492
133	0x3e25be4c	0.16185874
134	0xbd43b082	-0.047775753
135	0xbe0f43a4	-0.13990647
136	0x3c8210bd	0.015877122
137	0xbd8be896	-0.068314716
138	0xbe26ec7c	-0.16301149
139	0x3d974d0b	0.07387742
140	0x3cd8543c	0.026407354
141	0xbcdbf0eb	-0.026848277
142	0xbe34ed6e	-0.17668697
143	0xbe1484b0	-0.14503741
144	0x3d0d7cab	0.03454272
145	0xbe1ba705	-0.15200432
146	0x3d23f1d3	0.040025543
147	0xbc861682	-0.016368154
148	0xbe159755	-0.1460851
149	0xbde5f52a	-0.11228402
150	0xbc1221b5	-0.008919169
151	0xbd48dd84	-0.04903938
152	0xbd610d7a	-0.054944493
153	0xbd522e0a	-0.051313438
154	0xbe12bcdb	-0.14329855
155	0x3e54760f	0.20748161
156	0xbeba9f4f	-0.36449668
157	0x3cdc4c62	0.02689189
158	0x3b234fc5	0.0024919373
159	0xbd01222c	-0.03152673
160	0xbca41b8a	-0.020032663
161	0xbdde37a6	-0.10850458
162	0x3c9b2e61	0.018943014
163	0xbd92c164	-0.071657926
164	0xbd851cdd	-0.06499646
165	0xbd810e75	-0.063015856
166	0x3b84067e	0.0040290942
167	0x3de98884	0.114029914
168	0x3e19509e	0.1497216
169	0xbda8cb85	-0.08241943
170	0xbdcc74e6	-0.09983234
171	0xbd808253	-0.06274857
172	0x3db65b68	0.08904153
173	0xbc8c276a	-0.017108638
174	0x3dcfaac6	0.10139994
175	0xbd9f8339	-0.077887006
176	0x3e685f95	0.22692712
177	0x3e897d52	0.26853424
178	0xbcff6376	-0.031175356
179	0x3d3001e3	0.04297055
180	0x3e1dc4c2	0.15407088
181	0xbdcb50c4	-0.09927514
182	0xbd3b23fd	-0.045688618
183	0xbd39a8ec	-0.045327112
184	0x3da05cee	0.07830225
185	0xbd8b4344	-0.06799939
186	0xbddac331	-0.10681761
187	0xbe749266	-0.23883972
188	0x3d0357ab	0.03206603
189	0xbd84e829	-0.064895935
190	0xbe5eb144	-0.21747309
191	0x3d8349ee	0.06410585
192	0xbcee7a3f	-0.029111026
193	0x3de6022e	0.112308845
194	0x3ddb6a91	0.10713685
195	0xbdc938d6	-0.09825294
196	0xbea01649	-0.31267002
197	0xbd70becf	-0.05877572
198	0xbe1da0dc	-0.15393394
199	0x3c2d1c72	0.010565864
200	0xbd881b2a	-0.06645806
201	0xbe65c0d6	-0.22436842
202	0xbe0117d9	-0.12606753
203	0xbe2bb8e5	-0.1676975
204	0xbdfe554d	-0.124186136
205	0xbbd7f6d9	-0.006590706
206	0x3e2a67d5	0.16641171
207	0xbdce1154	-0.10061899
208	0xbda9656b	-0.08271297
209	0x3dceed03	0.101038
210	0xbc06f3b5	-0.008236815
211	0x3cd0f47c	0.025507204
212	0xbdab33c5	-0.08359484
213	0x3e1972d9	0.14985217
214	0xbd698d45	-0.05701949
215	0xbb2dbb74	-0.0026509436
216	0x3e9fb9bb	0.3119639
217	0x3dccf972	0.100085154
218	0x3d37f643	0.044912588
219	0xbde9455f	-0.113901846
220	0xbd96cec9	-0.0736366
221	0xbe058b97	-0.1304153
222	0x3c185c2d	0.00929932
223	0xbde2e92d	-0.11079631
224	0x3dbdc0f4	0.092653185
225	0xbdd78ed4	-0.10525289
226	0x3e0193bb	0.12654011
227	0x3e7225fb	0.23647301
228	0xbdbe9a94	-0.09306827
229	0x3db387cc	0.087661356
230	0x3e283380	0.16425896
231	0x3e349e55	0.17638524
232	0x3e257951	0.1615956
233	0x3e48d12a	0.1961104
234	0x3cca85ea	0.024722058
235	0xbcdb5d99	-0.02677803
236	0xbdb22765	-0.0869892
237	0xbd639c5a	-0.05556903
238	0x3da4de98	0.08050269
239	0xbcb827c4	-0.0224799
240	0xbe4571a2	-0.19281629
241	0xbdb9e650	-0.09077132
242	0xbd90a7cc	-0.07063255
243	0x3b9e8ed4	0.004838804
244	0x3c4612f2	0.012089478
245	0x3d745552	0.05965168
246	0x3cca6c64	0.024709888
247	0x3e954677	0.29155323
248	0x3e6fcb14	0.23417312
249	0xbe928e4f	-0.28624198
250	0x3cd5de22	0.026106898
251	0xbe96b520	-0.29435062
252	0xbd4688ac	-0.048470184
253	0xbcaccb49	-0.021093028
254	0xbdd234c3	-0.1026397
255	0xbe5275c2	-0.20552734

finger.conv1.bias f4 [16]
0	0x3a5ffbd7	0.0008544302
1	0xb9a223d7	-0.0003092575
2	0x3a04ff7a	0.00050734694
3	0xbaaa94cd	-0.0013014317
4	0x3ab926c6	0.0014125935
5	0xba3f9c68	-0.0007309378
6	0x3a605134	0.0008557022
7	0xbab2d49d	-0.0013643686
8	0xb9e09b87	-0.00042840486
9	0x39f0dace	0.0004593939
10	0x3a0decb4	0.00054139947
11	0xbabe8644	-0.0014535864
12	0x3a35b641	0.000693176
13	0x3ad8aef2	0.001653163
14	0x3aa42ff5	0.0012526499
15	0x3adc95c2	0.0016829299

finger.bn1.weight f4 [16]
0	0x3f803de4	1.0018888
1	0x3f800921	1.0002786
2	0x3f7fba82	0.99893963
3	0x3f8030d3	1.00149
4	0x3f803bff	1.0018309
5	0x3f803fad	1.0019432
6	0x3f803e9c	1.0019107
7	0x3f803db0	1.0018826
8	0x3f7f7d49	0.99800545
9	0x3f8040ad	1.0019737
10	0x3f7f7d8d	0.9980095
11	0x3f7fcd30	0.99922466
12	0x3f803b63	1.0018123
13	0x3f7f7dff	0.9980163
14	0x3f800939	1.0002815
15	0x3f7f7cd9	0.9979988

finger.bn1.bias f4 [16]
0	0x3ad74204	0.0016422872
1	0xbb024fee	-0.0019884068
2	0xbaba66c2	-0.0014221298
3	0x3aca97b9	0.0015456594
4	0x3b02c8aa	0.001995603
5	0x3affe606	0.0019523508
6	0x39db36b6	0.00041811698
7	0xb9fcc3a8	-0.0004821096
8	0xbb0131aa	-0.001971344
9	0x3ab7d6a8	0.0014025765
10	0xbad06866	-0.0015900254
11	0xba7ae89d	-0.0009571405
12	0x3af23ee8	0.0018481882
13	0xbb0323a0	-0.0020010248
14	0xbaf724ae	-0.0018855536
15	0xbaeddd06	-0.0018147535

finger.bn1.running_mean f4 [16]
0	0x3c071730	0.008245274
1	0x3b87631b	0.0041316873
2	0x3b35b9c6	0.0027729138
3	0x3d3f273f	0.046668287
4	0xbd64955a	-0.055806495
5	0xbdb19866	-0.08671646
6	0xbbca637f	-0.0061764116
7	0xbd67836d	-0.05652182
8	0x3c5a3120	0.013317376
9	0x3c8706e3	0.016482776
10	0x3c1859fd	0.009298799
11	0x3c570892	0.013124602
12	0xbcba0d5c	-0.022711448
13	0xbc5dcf7e	-0.0135382395
14	0x3c8c4c52	0.017126236
15	0xbcde6cf8	-0.02715157

finger.bn1.running_var f4 [16]
0	0x3f75dffc	0.960449
1	0x3f6a9b39	0.916431
2	0x3f57c539	0.8428531
3	0x3f9000d3	1.1250252
4	0x3f5d4bf2	0.8644401
5	0x3fe67eab	1.8007406
6	0x3f542801	0.8287354
7	0x3fba24df	1.4542502
8	0x3f7fe1c9	0.99953896
9	0x3f5d4096	0.86426675
10	0x3f619371	0.881156
11	0x3f69262d	0.91073877
12	0x3f5f65cb	0.872647
13	0x3f551015	0.83227664
14	0x3f5711f9	0.840118
15	0x3f9134a7	1.1344193

finger.conv2.weight f4 [32, 16, 3, 3]
0	0xbd6a503a	-0.057205416
1	0x3e2024f4	0.15639096
2	0x3d501888	0.050804645
3	0x3d06187b	0.03273819
4	0xbd6eb182	-0.058274753
5	0x3d957779	0.07298178
6	0xbca73c32	-0.020414446
7	0x3c8040b7	0.015655858
8	0xbdb38dbb	-0.08767267
9	0xbc1b7ce0	-0.009490222
10	0xbcb2fdb5	-0.021849493
11	0xbbe06fc8	-0.006849263
12	0x3d3ccd72	0.046094365
13	0x3dccbe3d	0.099972226
14	0xbd2d9686	-0.04237988
15	0x3d75f28d	0.060045768
16	0x3e1ad38d	0.15119763
17	0x3da3bb5d	0.07994721
18	0x3c866f1b	0.016410401
19	0x3d154faf	0.036452945
20	0xbd52ba95	-0.05144747
21	0x3ddd43c2	0.108039394
22	0x3d00d73e	0.03145527
23	0x3d971e11	0.073787816
24	0xbe2dfb40	-0.16990376
25	0x3daf5bdb	0.08562442
26	0xbcc6639c	-0.02421742
27	0xbdbc915a	-0.09207411
28	0xbc2b3e95	-0.010451932
29	0xbd86b93d	-0.065783
30	0x3d5b33a6	0.053516053
31	0x3d763098	0.060104936
32	0xbc3fa2f5	-0.011696567
33	0xbd3cae9c	-0.046064958
34	0xbb48211b	-0.003053731
35	0x3de49480	0.111611366
36	0x3d4030b9	0.046921466
37	0xbd8fa34e	-0.0701357
38	0x3bd93c8f	0.0066295336
39	0xbbbc8fb8	-0.0057544373
40	0xbd904e48	-0.07046181
41	0x3e3bc303	0.1833611
42	0xbd638f22	-0.055556424
43	0xbd664d28	-0.056225926
44	0x3c734496	0.014847895
45	0xbd960c72	-0.073265925
46	0x3e42dd62	0.19029763
47	0xbe26e7b3	-0.16299324
48	0xbdb9c865	-0.09071425
49	0x3d4ae309	0.049532924
50	0xbca899e8	-0.0205812
51	0x3cce6299	0.0251935
52	0x3dc3b499	0.09555931
53	0xbddd4eb9	-0.10806031
54	0xbdc05ce4	-0.093927175
55	0xbd9fcee7	-0.07803135
56	0x3cb830c5	0.022484193
57	0x3d8d5c42	0.069023624
58	0xbd256ac9	-0.04038504
59	0x3d3314ad	0.04372089
60	0xbd480980	-0.048837185
61	0xbd509b8f	-0.050929602
62	0xbc0314a1	-0.008000524
63	0xbe243682	-0.16036418
64	0xbe02c4c2	-0.1277037
65	0x3d10a290	0.03531128
66	0x3bb71435	0.0055871257
67	0xbd979257	-0.07400959
68	0x3d36cb69	0.04462758
69	0xbdd36403	-0.1032181
70	0xbbcb5dd0	-0.0062062517
71	0xbdfa5608	-0.122234404
72	0xbd4fa1de	-0.050691478
73	0x3cd73744	0.02627147
74	0xbd9119ff	-0.070850365
75	0xbbd29b36	-0.006427194
76	0x3daf8a7d	0.085713364
77	0xbdb1c694	-0.08680454
78	0x3d836b5f	0.06416964
79	0xbc332596	-0.010934254
80	0xbcb48505	-0.022036085
81	0x3d74ef5d	0.059798587
82	0xbd8cdc94	-0.068780094
83	0xbd671585	-0.056417007
84	0x3dba5689	0.090985365
85	0xbbe098d3	-0.0068541556
86	0x3bfa9066	0.007646608
87	0xbe11e7e1	-0.14248611
88	0x3d06b266	0.032884978
89	0xbe2afab6	-0.16697201
90	0xbd5cead2	-0.05393488
91	0xbe56388e	-0.20920011
92	0xbe10aec9	-0.14129175
93	0xbcc3f2a4	-0.023919411
94	0xba127468	-0.0005586804
95	0x3d4c105c	0.04982029
96	0x3dddd822	0.1083224
97	0x3cfed60f	0.03110793
98	0xbc1f1cc1	-0.009711445
99	0x3c13b217	0.009014628
100	0xbd2bfbd7	-0.04198822
101	0xbc82712e	-0.015923109
102	0xbdbb3937	-0.09141772
103	0x3cb272ae	0.0217832
104	0x3e11326e	0.14179394
105	0x3cafcbe8	0.021459535
106	0x3c3c4494	0.01149096
107	0x3d39a679	0.045324776
108	0x3dfc1cf9	0.123102136
109	0x3c1c0f66	0.009525156
110	0xbdba3c39	-0.09093518
111	0x3e005f9d	0.12536474
112	0x3cd19cbd	0.025587434
113	0x3c0375a9	0.008023658
114	0x3dc4e751	0.096144326
115	0x3d25b95a	0.04045997
116	0xbd0bd569	-0.03413907
117	0xbdb4e2e1	-0.08832336
118	0x3dc609e5	0.09669856
119	0xbda17f5f	-0.07885622
120	0x3d34ed14	0.044171408
121	0xbceef3d1	-0.029168995
122	0xbda54972	-0.08070649
123	0x3d714d5f	0.058911677
124	0xbe31fca5	-0.17381532
125	0x3cdcb7f3	0.026943183
126	0x3cea7456	0.028619926
127	0x3cb4f2a5	0.022088358
128	0x3d882ed7	0.06649559
129	0xbc9c80ad	-0.019104326
130	0x3d363381	0.04448271
131	0xbbf084f6	-0.007340069
132	0xbe88b804	-0.26702893
133	0xbc5ab565	-0.013348912
134	0xbb06d42d	-0.0020573244
135	0x3dc7a7c8	0.097487986
136	0x3d2d54dd	0.04231726
137	0xbd935961	-0.07194782
138	0xbc6e8d5e	-0.014560072
139	0xbdb4a40f	-0.08820354
140	0x3be67664	0.007033156
141	0x3dd94392	0.10608591
142	0x3c336c2d	0.010951084
143	0x3d081bd7	0.033229675
144	0x3d149830	0.03627795
145	0x3d84b673	0.06480112
146	0xbd08f93a	-0.033440806
147	0x3d20ed18	0.03928861
148	0x3b8ee1c1	0.004360408
149	0x3ba8a1df	0.0051462497
150	0x3d316f42	0.043318994
151	0xbda39239	-0.07986874
152	0x3d7edc4e	0.062221818
153	0x3bea6ead	0.007154307
154	0xbd70660a	-0.058691062
155	0xbd1a2587	-0.037633445
156	0x3da638a0	0.08116269
157	0x3d734535	0.059392173
158	0xbdac52ed	-0.08414254
159	0xbb7b5668	-0.0038351063
160	0x3d90fa59	0.07079
161	0xbe26c2d3	-0.16285257
162	0x3db2c128	0.08728248
163	0xbe108c11	-0.14115931
164	0x3d4877f7	0.048942532
165	0xbe07abed	-0.13249178
166	0xbdaa8bba	-0.08327432
167	0xbdc6980b	-0.09696969
168	0x3d70f535	0.058827598
169	0x3e20d6b3	0.15706901
170	0x3cd82570	0.02638504
171	0xbd53689e	-0.051613443
172	0xbdea1df7	-0.114314966
173	0x3c500057	0.0126953935
174	0xbd85d41e	-0.06534599
175	0x3c04456b	0.008073191
176	0x3d928353	0.07153954
177	0x3d15238e	0.03641086
178	0x3db4b465	0.0882347
179	0xb96ff826	-0.00022885259
180	0x3dbb9e54	0.09161058
181	0xbd704cbc	-0.05866693
182	0x3dc178b4	0.094468504
183	0xbb027bac	-0.001991014
184	0xbd32bb0a	-0.043635406
185	0x3bdc5ea1	0.006725148
186	0xbd0d7465	-0.03453483
187	0xbd1ecd70	-0.03877014
188	0x3e071f5a	0.13195553
189	0x3c2200db	0.009887899
190	0xbcb31e0c	-0.021864913
191	0xbdbd15f2	-0.09232701
192	0x3cd7d555	0.026346842
193	0xbddaccde	-0.106836066
194	0xbcb22c02	-0.0217495
195	0x3df8ba34	0.121448904
196	0x3e24b233	0.16083603
197	0xbdc79731	-0.09745634
198	0x3d9dcd45	0.07705168
199	0x3d819a96	0.06328313
200	0x3dcf422a	0.10120042
201	0x3e2256ac	0.15853375
202	0xbe01ca8b	-0.1267492
203	0x3e27b382	0.1637707
204	0xbc3684ad	-0.011140031
205	0x3daf44b7	0.08558028
206	0x3d8aa1fb	0.067691766
207	0x3cdb5569	0.026774125
208	0xbd80a97a	-0.06282325
209	0xbd7eabe5	-0.06217565
210	0x3d379369	0.044818316
211	0xbc02b5a6	-0.007977879
212	0x3c1dc75b	0.00963005
213	0xbb09b469	-0.0021012074
214	0x3e1e0b5b	0.1543402
215	0xbce115ca	-0.02747621
216	0xbd5d091e	-0.053963773
217	0x3e924aeb	0.28572783
218	0xbbe4a845	-0.006978067
219	0x3cfbdad1	0.030743988
220	0x3b64d5d5	0.0034917493
221	0xbd6cc92b	-0.057809036
222	0xbcbc0668	-0.022952273
223	0x3e2c1d8e	0.16808149
224	0xbd271379	-0.040790055
225	0xbce3417f	-0.027741192
226	0xbd713c26	-0.058895253
227	0xbde2addd	-0.11068318
228	0xbd1bc5d4	-0.03803046
229	0x3d8b70be	0.06808613
230	0xbdcdd7ce	-0.10050927
231	0x3dee8241	0.11645938
232	0x3d53b133	0.051682662
233	0x3d9c5a0b	0.07634362
234	0x3b86880f	0.004105575
235	0xbdad152a	-0.08451302
236	0xbd80dcf4	-0.062921435
237	0x3db5078f	0.08839332
238	0xbd091340	-0.033465624
239	0xbdaf952d	-0.08573375
240	0x3c9d7aeb	0.01922365
241	0x3d98e542	0.074656025
242	0x3d8e27e5	0.06941203
243	0xbcc0fe1c	-0.023558669
244	0xba767a44	-0.0009402374
245	0xbd0ed784	-0.0348735
246	0x3df6e719	0.12055797
247	0x3cf6d79a	0.030132104
248	0xbd7f8222	-0.062379964
249	0xbda53f85	-0.08068756
250	0x3d2e17b7	0.042503085
251	0x3e3ec1c8	0.18628609
252	0x3b7d6e77	0.0038670579
253	0x3dd58a62	0.10426785
254	0x3c54e983	0.012995127
255	0xbdcac766	-0.099013135

finger.conv2.bias f4 [32]
0	0xba712d05	-0.0009200129
1	0x38d62740	0.00010211626
2	0xba9bd33e	-0.0011888517
3	0xbae58182	-0.001750991
4	0xbacc5d2d	-0.0015591733
5	0x3af73e30	0.0018863138
6	0xbae8613d	-0.0017729175
7	0x39f77744	0.0004720037
8	0xbaeed3b5	-0.0018221053
9	0xb933a72c	-0.00017133047
10	0xb9a7f6d0	-0.00032036612
11	0x39ffc322	0.00048782775
12	0x3ab6744c	0.0013920157
13	0x3a8a991f	0.0010574198
14	0xbaf2e152	-0.0018530285
15	0xbafcd58e	-0.0019289718
16	0x3aa97a43	0.0012930114
17	0x39408780	0.00018361025
18	0xb9c76858	-0.0003803398
19	0x3a94b4fd	0.0011345443
20	0xb983e050	-0.00025153393
21	0xbad6a180	-0.0016375035
22	0xbad198c8	-0.0015990967
23	0x3acd7478	0.0015674969
24	0xbace7e08	-0.0015754113
25	0x3aedd25e	0.0018144359
26	0xbad6ee91	-0.0016398003
27	0xb898c428	-7.284462e-05
28	0xb88a0d98	-6.582885e-05
29	0x3a38f57d	0.00070556236
30	0x3a208ce2	0.0006124509
31	0x3af4d648	0.0018679583

finger.bn2.weight f4 [32]
0	0x3f80257f	1.0011443
1	0x3f7f8de2	0.9982587
2	0x3f7faf91	0.9987727
3	0x3f7f7d00	0.9980011
4	0x3f7fdc5a	0.99945605
5	0x3f7fc184	0.99904656
6	0x3f803f9c	1.0019412
7	0x3f803efc	1.0019221
8	0x3f800bd8	1.0003614
9	0x3f7f7cfa	0.99800074
10	0x3f803be6	1.001828
11	0x3f803e87	1.0019082
12	0x3f801447	1.0006188
13	0x3f7fd0a0	0.9992771
14	0x3f800a6b	1.0003179
15	0x3f7f7e68	0.99802256
16	0x3f7fd560	0.9993496
17	0x3f801024	1.0004926
18	0x3f80395c	1.0017505
19	0x3f7f7fe9	0.9980455
20	0x3f804089	1.0019695
21	0x3f7f8525	0.9981254
22	0x3f803bc2	1.0018237
23	0x3f7f80bd	0.99805814
24	0x3f802eaf	1.0014247
25	0x3f803571	1.0016309
26	0x3f804114	1.001986
27	0x3f7f7dc7	0.99801296
28	0x3f8030ad	1.0014855
29	0x3f8012ad	1.0005699
30	0x3f8019cf	1.0007876
31	0x3f7fd615	0.9993604

finger.bn2.bias f4 [32]
0	0x3a6e8d3a	0.0009100024
1	0xba648138	-0.0008716765
2	0xbb028758	-0.0019917097
3	0xbaf9e18a	-0.0019064408
4	0xba37687e	-0.00069964665
5	0xba345ae2	-0.00068799977
6	0x3b0035f3	0.0019563406
7	0x3b02358f	0.001986835
8	0x39c904d6	0.0003834131
9	0xba538313	-0.0008068543
10	0x3af1fc30	0.0018461999
11	0x3a61a3f8	0.0008607502
12	0x3a04c4f5	0.0005064749
13	0xba105234	-0.0005505413
14	0x39f686ac	0.00047021115
15	0xbb02bc9e	-0.001994885
16	0x3a47c616	0.00076207647
17	0x39d29fc0	0.00040173344
18	0x3af8d722	0.0018985013
19	0xbb012606	-0.0019706502
20	0x3b02c2ea	0.0019952604
21	0xba9b1243	-0.0011831004
22	0xb9dfca5c	-0.00042684644
23	0xbb0082a5	-0.001960912
24	0x3aeeeaca	0.0018227932
25	0x3a7d7c1f	0.00096696796
26	0x3af87036	0.001895434
27	0xbaee538e	-0.001818286
28	0x3ae5a22c	0.0017519644
29	0x3a5bf127	0.00083901215
30	0x3a49af2a	0.0007693643
31	0xba53bcf4	-0.00080771674

finger.bn2.running_mean f4 [32]
0	0xbda68b04	-0.08131984
1	0x3ea88ad2	0.32918411
2	0xbdcb2407	-0.09918981
3	0x3db68920	0.08912873
4	0x3c850bc2	0.016240958
5	0x3e5b4a33	0.21415024
6	0xbda54294	-0.080693394
7	0x3c8a6600	0.01689434
8	0x3e395007	0.18096934
9	0x3e0295d2	0.12752464
10	0x3eab71d0	0.3348527
11	0x3dee10b0	0.11624277
12	0xbd250f47	-0.040297773
13	0xbe2deb6b	-0.16984336
14	0xbd250cc6	-0.040295385
15	0xbcf018d9	-0.029308723
16	0xbdae4b62	-0.08510472
17	0xbcfb758e	-0.030695703
18	0xbd9930c3	-0.07480004
19	0xbe2c4d3c	-0.16826338
20	0x3bda38be	0.006659596
21	0xbe6eb4a6	-0.233111
22	0x3c97035c	0.018434219
23	0xbd0120e7	-0.03152552
24	0x3dce11bf	0.100619785
25	0x3c9ec297	0.019379897
26	0xbdaf2a06	-0.08552937
27	0x3d73a4cd	0.05948334
28	0x3ceda618	0.029009864
29	0xbe007dc9	-0.12547983
30	0xbe8e3a60	-0.27778912
31	0xbe7f977e	-0.24960133

finger.bn2.running_var f4 [32]
0	0x3f5aba3e	0.85440433
1	0x3f754a90	0.958169
2	0x3f60b1af	0.87771124
3	0x3f7ac1a8	0.97951746
4	0x3f601e8b	0.87546605
5	0x3f6ac449	0.9170576
6	0x3f6659ec	0.8998096
7	0x3f5ed2f0	0.87040615
8	0x3f611e3a	0.8793675
9	0x3f5f2f76	0.87181795
10	0x3f7b4ce0	0.98164177
11	0x3f65d33a	0.8977543
12	0x3f66fc97	0.9022917
13	0x3f5dec2d	0.866885
14	0x3f5d2742	0.8638803
15	0x3f6337d5	0.8875707
16	0x3f5def0b	0.86692876
17	0x3f5b2450	0.85602283
18	0x3f5cda6b	0.8627078
19	0x3f679f0f	0.9047708
20	0x3f594b24	0.8488028
21	0x3f7e4eb0	0.9933882
22	0x3f7736c1	0.9656792
23	0x3f5bd432	0.8587066
24	0x3f6389c6	0.888821
25	0x3f61a337	0.8813967
26	0x3f5bee06	0.8591007
27	0x3f622d31	0.88350207
28	0x3f67d4ef	0.90559286
29	0x3f634eaa	0.88791907
30	0x3f6da44c	0.9282882
31	0x3f6f16cb	0.93394154

iris.conv1.weight f4 [16, 1, 3, 3]
0	0xba776877	-0.0009437869
1	0xbd25d763	-0.040488612
2	0xbe02d5df	-0.12776898
3	0x3dfbdd91	0.1229812
4	0x3de977b8	0.11399788
5	0x3c91c805	0.017795572
6	0x3e0eddb3	0.13951759
7	0x3d347f20	0.04406655
8	0xbd3444ac	-0.044010803
9	0x3db94d70	0.09047973
10	0xbe81730f	-0.25283095
11	0x3dc1853f	0.09449243
12	0x3de6bdc9	0.112666674
13	0xbe0e8d0a	-0.1392099
14	0x3da157e6	0.078780934
15	0xbe86ea0b	-0.26350436
16	0x3e805301	0.25063327
17	0x3bd87fb9	0.0066070226
18	0xbda0f5d0	-0.07859385
19	0xbdf21eb7	-0.11822265
20	0xbdae28f2	-0.085039034
21	0x3e808e44	0.2510854
22	0xbccd31f6	-0.025048237
23	0xbe39ed4c	-0.18156928
24	0x3bb23802	0.0054388056
25	0xbe366600	-0.17812347
26	0xbde3d393	-0.11124339
27	0xbe3c57ce	-0.1839287
28	0xbddd4496	-0.10804097
29	0x3dfd80fb	0.12378117
30	0x3e693b1d	0.22776456
31	0x3e27fabe	0.16404244
32	0x3ccb4485	0.024812946
33	0xbe37a4c7	-0.17933951
34	0xbe4fd551	-0.20296218
35	0xbd873088	-0.066010535
36	0xb9d483e2	-0.0004053405
37	0x3dfcdc96	0.12346761
38	0x3b621b4b	0.003450113
39	0xba3879f7	-0.0007037217
40	0x3dfcc9fd	0.12343214
41	0xbd83d5c5	-0.06437258
42	0x3d43452f	0.0476734
43	0x3de346c7	0.11097484
44	0xbda3df81	-0.08001614
45	0x3dfe3fcf	0.12414514
46	0xbdffbbb3	-0.12486973
47	0x3d358d1c	0.044324026
48	0xbc7e5743	-0.0155237345
49	0x3bc665cd	0.006054616
50	0x3e638c01	0.22221376
51	0x3e7b8109	0.24560942
52	0x3da0f437	0.0785908
53	0x3d2e0321	0.042483453
54	0xbd77e752	-0.06052334
55	0x3da9cba7	0.08290797
56	0x3dce8930	0.1008476
57	0x3e1d7fcb	0.1538078
58	0xbdcac4da	-0.09900828
59	0xbd85057d	-0.064951874
60	0x3d84df67	0.06487923
61	0x3d52c264	0.051454917
62	0x3d8e30d2	0.069429055
63	0xbd905f5d	-0.07049439
64	0xbd58adfd	-0.052900303
65	0x3bc17d73	0.0059048473
66	0x3dbffd2d	0.09374461
67	0xbd50d841	-0.050987486
68	0xbe6fe2e2	-0.23426393
69	0x3c50e2d6	0.012749394
70	0x3d973b52	0.07384361
71	0x3dd40248	0.103519976
72	0xbe763b72	-0.24046114
73	0xbd10b79c	-0.035331354
74	0xbe7b2e57	-0.24529396
75	0x3e61f72c	0.22066945
76	0xbd90a63e	-0.07062958
77	0xbe08e2e7	-0.13367806
78	0xbc8e1f08	-0.017348781
79	0x3cdfad66	0.027304363
80	0xbd1332fe	-0.0359373
81	0xbd43908e	-0.04774528
82	0x3dc9f0f8	0.09860414
83	0x3dace9b7	0.08443015
84	0x3e3f0aa5	0.18656404
85	0xbe58fde4	-0.21190602
86	0x3c12bef5	0.0089566605
87	0x3d3f91a6	0.04676976
88	0xbd05caba	-0.03266404
89	0x3eabe36f	0.33571956
90	0xbc1d6ab2	-0.009607958
91	0xbdf5ae8b	-0.11996182
92	0x3d8fb252	0.07016434
93	0x3e1485ba	0.14504138
94	0x3dd6dee4	0.10491732
95	0xbd38068c	-0.04492812
96	0x3d334081	0.043762688
97	0x3de0261d	0.109447695
98	0x3e293764	0.16525036
99	0xbdef60b7	-0.11688369
100	0x3d2e2089	0.042511497
101	0xbe09f9dd	-0.13474222
102	0xbd6c5e24	-0.057706967
103	0x3ded7a03	0.115955375
104	0x3cc25862	0.023723785
105	0x3cd31448	0.025766507
106	0xbe8bcd5a	-0.27305108
107	0x3d985242	0.074375644
108	0x3d5ad53c	0.053426012
109	0xbd652cde	-0.05595099
110	0xbe2725fd	-0.16323085
111	0xbd349812	-0.044090338
112	0xbdbacac9	-0.091207094
113	0xbcfd082d	-0.030887688
114	0x3e1a5f2e	0.1507537
115	0x3e0e80e3	0.13916354
116	0xbe45c793	-0.19314413
117	0xbd66687b	-0.056251984
118	0x3e130cef	0.14360403
119	0x3cd4088b	0.02588298
120	0x3e88d788	0.26726937
121	0xbcaee071	-0.021347256
122	0x3ccbd875	0.024883488
123	0xbcc453f7	-0.023965819
124	0xbe44e6d4	-0.19228679
125	0xbe0ab0e4	-0.13544041
126	0x3e6c05aa	0.23049036
127	0xbd4df858	-0.050285667
128	0x3d90a25c	0.070622176
129	0x3d8a73be	0.06760357
130	0x3daa61a5	0.083194055
131	0xbd1ea50e	-0.038731627
132	0xbde834e7	-0.11338215
133	0x3d09db02	0.033656128
134	0xbc4b79be	-0.012419162
135	0x3d00a9e6	0.031412028
136	0x3d32f74a	0.043692864
137	0x3dbf28a9	0.09333927
138	0x3d1ecd0a	0.03876976
139	0xbab2078d	-0.0013582573
140	0xbe44ec0c	-0.1923067
141	0x3db2c550	0.087290406
142	0x3e3c2e15	0.18376954
143	0xbc8cc81d	-0.017185265

iris.conv1.bias f4 [16]
0	0xbae3adb2	-0.0017370491
1	0xbaee56f8	-0.0018183878
2	0xbafa4cdc	-0.0019096392
3	0xbafb2948	-0.0019162083
4	0x3b016ffd	0.0019750588
5	0x3af4acda	0.0018667236
6	0xba0e56d2	-0.00054298074
7	0xbafb5c6a	-0.0019177322
8	0xbae31d1f	-0.0017327404
9	0x3aa07460	0.0012241714
10	0x3adac63b	0.0016691157
11	0xbafae8b6	-0.001914284
12	0x393ec800	0.00018194318
13	0xba249dd0	-0.00062796194
14	0xba4528d9	-0.00075210404
15	0xba9729ba	-0.0011532821

iris.bn1.weight f4 [16]
0	0x3f7fea31	0.9996672
1	0x3f7fca05	0.9991763
2	0x3f8021fd	1.0010372
3	0x3f803b69	1.001813
4	0x3f7f8d65	0.99825126
5	0x3f803a5a	1.0017807
6	0x3f800c1a	1.0003693
7	0x3f7feb0b	0.9996802
8	0x3f7fcd54	0.9992268
9	0x3f7f8670	0.9981451
10	0x3f7fe914	0.99965024
11	0x3f802fe3	1.0014614
12	0x3f803b54	1.0018106
13	0x3f7f7d70	0.9980078
14	0x3f7fe595	0.9995969
15	0x3f800953	1.0002846

iris.bn1.bias f4 [16]
0	0xba63a9dc	-0.0008684674
1	0xba21d6be	-0.00061736617
2	0x3a0499bf	0.00050583103
3	0x3b017412	0.0019753021
4	0xbae6d656	-0.0017611485
5	0x3aebb27f	0.0017982273
6	0x39c25b4e	0.0003707059
7	0xbafb531f	-0.0019174552
8	0xba83b470	-0.0010048281
9	0xbb028cbe	-0.0019920315
10	0xb9ef41fc	-0.00045634795
11	0x3b031503	0.0020001538
12	0x3a11cfdb	0.0005562284
13	0x3b017428	0.0019753072
14	0xbaa7024c	-0.0012741773
15	0x3afd798d	0.0019338593

iris.bn1.running_mean f4 [16]
0	0x3c8dfaf2	0.017331574
1	0xba782496	-0.0009465901
2	0xbd31176c	-0.043235227
3	0xbc884e6c	-0.016638957
4	0x3cb593c5	0.022165189
5	0x3d53e287	0.051729705
6	0x3cc69ccf	0.024244694
7	0xbc2f4c12	-0.010699289
8	0xbd315201	-0.043291096
9	0x3d1fde90	0.03903061
10	0x3d1cfdba	0.03832791
11	0xbcce2f40	-0.025169015
12	0xbc9d484f	-0.019199518
13	0x3ab7f25e	0.0014034023
14	0x3cb73856	0.02236573
15	0x3cbc1668	0.022959903

iris.bn1.running_var f4 [16]
0	0x3f29220d	0.6606758
1	0x3f2829f7	0.65689033
2	0x3f2cd056	0.67505395
3	0x3f28f8d3	0.66004676
4	0x3f295d95	0.6615842
5	0x3f2e376a	0.68053305
6	0x3f2953c3	0.66143435
7	0x3f287a7c	0.65811896
8	0x3f2cb3c3	0.67461795
9	0x3f2b7a0f	0.6698312
10	0x3f2b99c5	0.6703151
11	0x3f296f93	0.66185874
12	0x3f295a10	0.6615305
13	0x3f2882cc	0.6582458
14	0x3f295eab	0.66160077
15	0x3f29615d	0.6616419

iris.conv2.weight f4 [32, 16, 3, 3]
0	0xbe413ebc	-0.18871588
1	0xbd92366e	-0.07139288
2	0xbc982ba3	-0.018575495
3	0xbbf0de8b	-0.007350748
4	0x3e0f88f8	0.14017093
5	0x3da33a88	0.07970148
6	0x3d057a5b	0.03258739
7	0x3c905f56	0.017623585
8	0xbd5d24a2	-0.053990014
9	0xbc695141	-0.014240564
10	0x3c679dbc	0.014136728
11	0xbe0980c3	-0.13428025
12	0xbd144109	-0.036194835
13	0xbd5fa845	-0.054603834
14	0x3d2af714	0.04173954
15	0xbd21a5d1	-0.039464775
16	0xbc65dc30	-0.014029548
17	0xbc02cd3c	-0.007983502
18	0x3cbc4b57	0.022985144
19	0x3d7cb343	0.061694395
20	0xbe1e7a36	-0.15476307
21	0x3da9c89f	0.082902186
22	0xbdd00bfc	-0.10158536
23	0x3d078084	0.033081546
24	0x3d780523	0.060551774
25	0x3e564b4a	0.20927158
26	0xbcb7af0d	-0.022422338
27	0xbd9685cf	-0.07349741
28	0xbc592d3e	-0.0132554155
29	0xb94c24e8	-0.00019468705
30	0x3cf3f56a	0.029780108
31	0xbd0b090f	-0.033944186
32	0xbd8398fc	-0.06425664
33	0xbcde2dd3	-0.02712146
34	0x3dee20d0	0.11627352
35	0xbdfbe67c	-0.12299821
36	0x3bb756b4	0.0055950526
37	0x3d1462bc	0.036226973
38	0x3c605e73	0.013694393
39	0xbe0de077	-0.13855158
40	0x3d02f9eb	0.03197662
41	0x3c3d0aaa	0.011538187
42	0xbc5a6f8f	-0.013332262
43	0xbe166b3b	-0.14689343
44	0x3e0c5774	0.13705236
45	0xbe5b25ad	-0.21401091
46	0x3d853c27	0.06505614
47	0x3c866fba	0.016410697
48	0x3be3793e	0.0069419434
49	0xbd3b547d	-0.04573487
50	0x3d2e0719	0.042487238
51	0xbd933c6e	-0.071892604
52	0xbdd12824	-0.10212734
53	0xbd7dd2cd	-0.061968613
54	0x3de888ff	0.11354255
55	0x3e160847	0.14651595
56	0x3c9cab22	0.019124571
57	0xbd72047a	-0.0590863
58	0xbd93c498	-0.07215232
59	0x3d6a6d5f	0.05723321
60	0x3d9379c8	0.07200962
61	0xbdd78763	-0.1052387
62	0x3b77ca4b	0.0037809785
63	0xbc893575	-0.016749123
64	0x3d298dfe	0.04139518
65	0x3d1850b2	0.037186332
66	0xbd814a72	-0.063130274
67	0x3d093c55	0.033504803
68	0xbca810b4	-0.020515777
69	0x3dc7723e	0.09738587
70	0x3db6ef63	0.08932378
71	0x3e104a25	0.14090784
72	0xbe187693	-0.14888982
73	0xbcc7be9d	-0.024382884
74	0x3ce9ee8c	0.02855613
75	0x3cef2973	0.02919457
76	0x3d700aad	0.05860393
77	0xbd771a6b	-0.06032793
78	0x3ce6a8bc	0.02815663
79	0xbd96bcdc	-0.07360241
80	0x3deaaf81	0.11459256
81	0xbd887f95	-0.06664959
82	0x3d7b7667	0.061392214
83	0xbd11594e	-0.03548556
84	0xbe318f2e	-0.17339775
85	0x3d01fd91	0.03173596
86	0xbdda2ad4	-0.106527
87	0xbda1fb50	-0.07909262
88	0xbddfc9a3	-0.10927131
89	0x3c033160	0.008007377
90	0xbd8d9b98	-0.06914443
91	0xbd3dcb00	-0.046336174
92	0xba891864	-0.001045954
93	0xbda92c7b	-0.08260437
94	0xbca9086e	-0.020633902
95	0xbc6e5eac	-0.014548939
96	0x3d8d4529	0.06897957
97	0x3d6243f4	0.055240586
98	0x3d74c155	0.05975469
99	0xbcb17649	-0.021662848
100	0xbe3133c5	-0.17304905
101	0xbe0649dd	-0.13114114
102	0x3d880218	0.06641024
103	0xbe04319e	-0.12909552
104	0x3cc21aa7	0.02369435
105	0x3c8fc265	0.01754875
106	0xbd027923	-0.031853806
107	0xbb8234c6	-0.0039735762
108	0xbc28e0b1	-0.010307477
109	0x3dbde4bd	0.09272144
110	0xbc867f48	-0.016418114
111	0xbdcff54b	-0.10154208
112	0xbdbba3b5	-0.09162084
113	0xbe424538	-0.18971717
114	0xbdb444c8	-0.088021815
115	0x3ba0a36c	0.004902294
116	0xbdea420d	-0.114383794
117	0x3e04d37c	0.129713
118	0x3d6bb2ed	0.057543684
119	0xbcceee31	-0.025260063
120	0xbbe22ba5	-0.0069021755
121	0x3dcd58b6	0.10026686
122	0x3d407a62	0.046991713
123	0xbc8474c4	-0.01616896
124	0xbd89aeb5	-0.06722776
125	0x3cf3cad2	0.029759798
126	0xbac4a902	-0.0015003982
127	0xbdda5921	-0.10661531
128	0xbc7b52a6	-0.015339529
129	0xbe209bc9	-0.15684427
130	0x3d2af3c2	0.04173637
131	0xbd95b98c	-0.07310781
132	0xbd9812ae	-0.07425438
133	0xbd5894d6	-0.052876316
134	0x3dcd93f0	0.100379825
135	0x3de05798	0.10954207
136	0xbcce7c23	-0.025205677
137	0xbd92a496	-0.071602985
138	0x3cd47444	0.025934346
139	0xbd0566f4	-0.032568887
140	0x3c3f0e82	0.011661174
141	0x3d58eb4a	0.052958764
142	0x3d3c1f09	0.045928035
143	0x3cdbc969	0.026829438
144	0x3dfd15a1	0.12357641
145	0x3c7d9add	0.015478817
146	0x3e06d354	0.13166553
147	0x3e015603	0.12630467
148	0xbdf889a4	-0.12135628
149	0x3d88a447	0.066719584
150	0xbd4065b0	-0.046971977
151	0xbe3f6d58	-0.18694055
152	0xbdcf2451	-0.10114349
153	0xbd7688a3	-0.0601889
154	0xbd751285	-0.059832115
155	0x3dbfcc32	0.09365119
156	0xbd18b3f2	-0.037280984
157	0x3d04fb02	0.032465942
158	0xbd41f0ec	-0.0473489
159	0xbca393db	-0.019967964
160	0x3c06ac7a	0.008219833
161	0x3d8b9c00	0.06816864
162	0x3d0b61d2	0.034028836
163	0xbcfe031c	-0.031007342
164	0x3d8a0918	0.06740016
165	0xbb8ee9c9	-0.0043613655
166	0x3cd2c0c1	0.025726678
167	0xbd4046eb	-0.046942633
168	0xbcb45d54	-0.022017159
169	0x3d23e95a	0.040017463
170	0xbdb5b662	-0.088726774
171	0xbdad41db	-0.084598266
172	0xbe08146c	-0.1328904
173	0x3d106fd3	0.035262894
174	0x3d2def92	0.0424648
175	0xbd8e3e4d	-0.06945477
176	0xbd309be9	-0.043117438
177	0x3de26fbc	0.11056468
178	0xbd815346	-0.06314711
179	0x3d5b8109	0.053589854
180	0x3b8ee146	0.004360351
181	0xbb938b21	-0.0045026694
182	0x3d62e13f	0.055390593
183	0xbd9623ca	-0.07331045
184	0xbde66ff0	-0.11251819
185	0x3e10c100	0.14136124
186	0xbdb2d2ea	-0.08731635
187	0xbe00de13	-0.12584715
188	0xbd9ff82a	-0.078110054
189	0xbdb1e611	-0.0868646
190	0x3bfc7107	0.0077039036
191	0xbdf9b183	-0.12192061
192	0x3e00ea08	0.12589276
193	0xbcb1ecaa	-0.021719296
194	0x3d63ea7d	0.055643547
195	0x3d63c24d	0.05560522
196	0xbe1e1e5a	-0.15441266
197	0x3d00f36c	0.031482145
198	0xbcf9e720	-0.030505717
199	0x3e4a367b	0.19747345
200	0xbd9d39fa	-0.07677074
201	0xbd938bc0	-0.072043896
202	0xbd7921f3	-0.060823392
203	0x3d5329e1	0.05155361
204	0xbd30c5ff	-0.043157574
205	0x3d5e6bf6	0.05430218
206	0x3dd506d5	0.10401694
207	0xbe073603	-0.13204198
208	0xbd8f74ca	-0.070046976
209	0x3e1c2c20	0.15251207
210	0x3b82e271	0.003994279
211	0xbda7fc89	-0.08202464
212	0xbd7aa897	-0.061195936
213	0x3d40d500	0.047078133
214	0xbd4cb22f	-0.049974617
215	0xbde75490	-0.11295426
216	0x3e2546bd	0.16140266
217	0xbd35d9bf	-0.044397112
218	0x3d8018db	0.06254741
219	0xbcc61630	-0.024180502
220	0x3e534b12	0.20634106
221	0x3df6d902	0.1205311
222	0x3d304df2	0.043043084
223	0xbe04a4a1	-0.12953426
224	0x3d63b7d9	0.055595253
225	0xbd968c33	-0.0735096
226	0x3c82ed39	0.015982257
227	0x3b6d5589	0.0036214313
228	0x3d3f8e4f	0.046766575
229	0xbd464155	-0.04840215
230	0x3e202d1e	0.15642211
231	0xbe3add7e	-0.18248555
232	0x3d4b9ef0	0.04971212
233	0xbe1ad0f4	-0.15118772
234	0xbd91da98	-0.071217716
235	0x3d8f5ee8	0.07000524
236	0x3c8d7d65	0.017271707
237	0xbd496bce	-0.049175076
238	0x3d2ca98e	0.042153887
239	0xbe124226	-0.14283046
240	0x3d4b84ca	0.049687184
241	0x3c4d5d2d	0.012534422
242	0xbcfcd59f	-0.030863581
243	0x3d05cabf	0.032664057
244	0xbe0682df	-0.13135861
245	0xbd8c14e7	-0.06839924
246	0xb9fa686f	-0.00047761525
247	0x3b126194	0.0022335993
248	0x3e3cda40	0.18442631
249	0xbdd3796a	-0.10325892
250	0xbe22290a	-0.15835968
251	0x3e1b196c	0.15146416
252	0xbd834816	-0.06410234
253	0x3d05c431	0.032657806
254	0xbd913944	-0.07091001
255	0x3cc34e7f	0.02384114

iris.conv2.bias f4 [32]
0	0x3acfea8a	0.0015862745
1	0xbae9a16a	-0.0017824594
2	0xbae85f8a	-0.0017728668
3	0xbabef336	-0.0014568332
4	0xbafecda6	-0.001943995
5	0xba639198	-0.0008681058
6	0xb8261d20	-3.960461e-05
7	0xba8656f6	-0.0010249305
8	0xb995f50e	-0.00028602075
9	0xbae3883a	-0.0017359324
10	0x3aced607	0.0015780338
11	0xbaf63267	-0.0018783332
12	0xbaed0da0	-0.0018085726
13	0x3a973c78	0.0011538407
14	0x3adb345c	0.0016723978
15	0xba6baae2	-0.0008990002
16	0x3aa026ae	0.0012218559
17	0xbab419fa	-0.0013740652
18	0x39d9b93b	0.00041527473
19	0x3aec262c	0.0018016747
20	0xbae4c280	-0.0017452985
21	0xbad0ed87	-0.0015939929
22	0xbab5c56c	-0.001386804
23	0xba90958e	-0.0011030899
24	0xbaa8cdd8	-0.0012878729
25	0xbaaf290c	-0.0013363673
26	0xbad2a7b6	-0.001607171
27	0x3ae1777a	0.0017201744
28	0x3adb2a8c	0.0016721054
29	0x3aaf717e	0.0013385264
30	0xbadf3954	-0.0017030635
31	0x3abd8cc0	0.0014461502

iris.bn2.weight f4 [32]
0	0x3f7fecfe	0.99970996
1	0x3f803a4e	1.0017793
2	0x3f803189	1.0015117
3	0x3f7fc7bc	0.99914145
4	0x3f80099f	1.0002936
5	0x3f801ac9	1.0008174
6	0x3f7fa208	0.99856615
7	0x3f7fed5b	0.9997155
8	0x3f7fdcc3	0.9994623
9	0x3f7f88be	0.99818027
10	0x3f7fc02f	0.99902624
11	0x3f80149a	1.0006287
12	0x3f7fe918	0.9996505
13	0x3f7f843f	0.99811167
14	0x3f7f7f9b	0.99804085
15	0x3f7f88d4	0.9981816
16	0x3f7fec58	0.99970007
17	0x3f8033cd	1.0015808
18	0x3f7fc289	0.9990621
19	0x3f7f8347	0.9980969
20	0x3f7f843d	0.99811155
21	0x3f800e1e	1.0004308
22	0x3f801471	1.0006238
23	0x3f802c40	1.0013504
24	0x3f7fc997	0.99916977
25	0x3f803c89	1.0018474
26	0x3f803fb6	1.0019443
27	0x3f7fb3f6	0.99883974
28	0x3f803de0	1.0018883
29	0x3f800da6	1.0004165
30	0x3f7f9e3d	0.9985083
31	0x3f80169c	1.00069

iris.bn2.bias f4 [32]
0	0xb9a14ad4	-0.00030764064
1	0x3af9d534	0.0019060732
2	0x3aef6c51	0.0018266534
3	0xba6e660a	-0.00090941845
4	0x39da2f88	0.00041615614
5	0x3a730b2b	0.00092713785
6	0xbad77569	-0.0016438189
7	0xba03b420	-0.0005024094
8	0xba0bee7a	-0.0005337965
9	0xba9aa19b	-0.001179743
10	0xba18fcb4	-0.00058359955
11	0x3a783a6e	0.0009469156
12	0xb9c35bd8	-0.00037261727
13	0xbaeee743	-0.001822688
14	0xbafc053c	-0.0019227634
15	0xbaf685fe	-0.0018808243
16	0x3ae4f4c0	0.0017467961
17	0x3abeb809	0.0014550696
18	0xba940581	-0.0011293144
19	0xbb002c2a	-0.0019557574
20	0xbabf0eba	-0.0014576532
21	0x39f3528e	0.0004641008
22	0x3a0a76b0	0.0005281968
23	0x3aa82d42	0.0012830871
24	0xba818b7f	-0.0009883492
25	0x3ae70972	0.0017626716
26	0x3afa9f5a	0.0019120977
27	0xba52a9b9	-0.0008036155
28	0xb9b32252	-0.0003416711
29	0x3a585739	0.0008252743
30	0xbae7890a	-0.0017664742
31	0x3a76a177	0.00094082154

iris.bn2.running_mean f4 [32]
0	0xbe8dfed9	-0.27733496
1	0xbe01cad0	-0.12675023
2	0xbe26ca73	-0.16288166
3	0x3dc6b644	0.09702733
4	0xbd68525c	-0.05671917
5	0xbd5a4e77	-0.053297486
6	0x3b084071	0.0020790363
7	0x3cd459a8	0.025921658
8	0xbc37bf01	-0.0112149725
9	0xbe416144	-0.1888476
10	0x3e8ab25c	0.27089202
11	0xbe077727	-0.13229047
12	0xbe5595ab	-0.20857875
13	0x3d25e140	0.04049802
14	0xbd7f422f	-0.062318977
15	0xbc1bc801	-0.009508134
16	0xbd0dd663	-0.034628283
17	0xbe386fef	-0.1801145
18	0xbc22d5f8	-0.009938709
19	0x3d98536a	0.07437785
20	0x3bdd05fe	0.006745099
21	0xbe4235f2	-0.18965891
22	0xbc28ca7b	-0.010302181
23	0xbe67b54e	-0.22627756
24	0xbad86c25	-0.0016511722
25	0x3c162d34	0.009166051
26	0x3e520b4c	0.20512122
27	0xbe946439	-0.28982714
28	0x3e5ac3c0	0.21363735
29	0x3c898952	0.016789112
30	0x3c44d6c0	0.012014091
31	0xbd9c3594	-0.07627407

iris.bn2.running_var f4 [32]
0	0x3f440a47	0.7657818
1	0x3f376ca1	0.7165013
2	0x3f734b75	0.95037013
3	0x3f50a6b0	0.81504345
4	0x3f3824a2	0.719309
5	0x3f361ca3	0.71137446
6	0x3f3c3121	0.73512465
7	0x3f42a3a1	0.7603093
8	0x3f42663b	0.7593724
9	0x3f4daa8c	0.8033836
10	0x3f6ffa91	0.9374171
11	0x3f5dff7c	0.86717963
12	0x3f513029	0.8171411
13	0x3f6ebe73	0.9325935
14	0x3f44256d	0.7661961
15	0x3f355192	0.7082759
16	0x3f510fd8	0.816648
17	0x3f42e0aa	0.7612406
18	0x3f3f171d	0.74644643
19	0x3f465981	0.7748032
20	0x3f4f7cee	0.8105
21	0x3f4c9e3a	0.79928935
22	0x3f43ca70	0.7648077
23	0x3f6262fd	0.88432294
24	0x3f457206	0.7712711
25	0x3f34fcd7	0.70698303
26	0x3f4d04e4	0.8008559
27	0x3f733c4e	0.9501389
28	0x3f70312f	0.9382505
29	0x3f42f507	0.7615513
30	0x3f804356	1.0020549
31	0x3f3d8b0b	0.7404029

fc.0.weight f4 [128, 96]
0	0x3e35417f	0.17700766
1	0xbc4e1349	-0.01257784
2	0x3d6ee822	0.058326848
3	0xbe0811d4	-0.13288051
4	0xbcd0a5c4	-0.025469668
5	0x3dd23742	0.10264446
6	0x3c4383d1	0.011933283
7	0xbc60ec3c	-0.013728198
8	0xbbdf2381	-0.0068096523
9	0x3d5dc915	0.054146845
10	0x3e25d9e2	0.16196397
11	0x3da8eb32	0.08247985
12	0xbe2e2549	-0.1700641
13	0x3db6d5ff	0.08927535
14	0xbd894acd	-0.0670372
15	0xbd8a4ca4	-0.06752899
16	0x3da6709d	0.08126948
17	0xbcc1083c	-0.023563497
18	0x3c701140	0.01465255
19	0x3d1018ad	0.035179783
20	0x3e16ebac	0.14738339
21	0xbd31d743	-0.04341818
22	0x3e1be458	0.15223825
23	0xbdac12a0	-0.0840199
24	0x3dc1637e	0.09442805
25	0xbe063ada	-0.13108388
26	0xbd273293	-0.040819716
27	0xbe67b395	-0.22627099
28	0xbe35b8c5	-0.17746265
29	0xbd9fb212	-0.07797636
30	0x3daa3bb1	0.083121665
31	0x3d73a92d	0.05948751
32	0xbc775f03	-0.015098336
33	0x3dffafd0	0.124847054
34	0x3d9606a2	0.07325484
35	0xbdaed4d7	-0.0853669
36	0xbd360380	-0.04443693
37	0x3cf8de6a	0.030379493
38	0x3d31e4b5	0.043431003
39	0xbe05a4c6	-0.13051137
40	0x3d99fe3a	0.07519193
41	0xbda1e1f6	-0.07904427
42	0xbd52ecf1	-0.051495496
43	0x3dc8aa9b	0.097981654
44	0x3dc7be45	0.09753088
45	0x3e310e04	0.17290503
46	0x3dc1b4cb	0.09458312
47	0x3e0d344c	0.13789481
48	0xbccdc989	-0.025120514
49	0xbcdce828	-0.02696617
50	0xbdc90e53	-0.09817185
51	0x3d933911	0.07188619
52	0xbbaa39ce	-0.005194879
53	0xbd492241	-0.049104933
54	0xbcd9056c	-0.026491843
55	0x3cafe5fa	0.021471966
56	0xbdb75537	-0.089518
57	0xbd9e94d1	-0.07743228
58	0x3d09a302	0.033602722
59	0xbd6daea7	-0.05802789
60	0x3d360a98	0.044443697
61	0x3c511cba	0.012763197
62	0x3dc4a878	0.09602445
63	0xbcb9028b	-0.02258422
64	0x3db13a31	0.08653677
65	0xbd28e2b4	-0.041231826
66	0xbdf0e56d	-0.117625095
67	0x3cfd5316	0.030923408
68	0xbd5ec61a	-0.054388143
69	0x3da329d1	0.0796696
70	0x3d5a7b9c	0.05334054
71	0xbd2cc0c9	-0.04217604
72	0x3d60e8e9	0.05490962
73	0xbd751183	-0.059831154
74	0x3e26e8b3	0.16299705
75	0x3e2101f6	0.15723404
76	0xbc80d8e4	-0.015728422
77	0x3d429b48	0.04751137
78	0x3e7703b2	0.24122503
79	0x3d1e2f44	0.038619295
80	0x3d040b0a	0.03223709
81	0x3dbde12f	0.09271466
82	0x3d95eb91	0.07320321
83	0x3c4691e2	0.012119742
84	0xbd314844	-0.04328181
85	0xbe1745b2	-0.1477268
86	0xbc4f5298	-0.012653969
87	0xbcd05317	-0.025430245
88	0xbd9eab05	-0.07747463
89	0xbdd1785a	-0.10228033
90	0xbdd532f1	-0.10410107
91	0x3dc41e78	0.09576124
92	0xbd288b5d	-0.041148532
93	0x3e3fe431	0.18739392
94	0xbe3fec82	-0.18742564
95	0xbe106e96	-0.14104685
96	0x3dc4b25e	0.09604333
97	0xbe9aea9d	-0.3025712
98	0x3c0a27c0	0.008432329
99	0xbc5d5f3d	-0.013511476
100	0xbd73c152	-0.059510536
101	0xbe50ebab	-0.204024
102	0x3e0a7b06	0.13523492
103	0x3d871dea	0.065975025
104	0xbd364ada	-0.044504978
105	0xbd431f65	-0.047637362
106	0xbdde0de4	-0.10842493
107	0x3df63dc9	0.12023503
108	0x3d1e98ec	0.038720056
109	0xbd16a96b	-0.036782663
110	0xbdd5095b	-0.10402175
111	0xbe0a82ef	-0.1352651
112	0x3cfcb89c	0.030849747
113	0xbd7184fa	-0.058964707
114	0x3de4c038	0.11169475
115	0x3d45f88c	0.048332736
116	0xbdefc087	-0.117066436
117	0x3e8a65c9	0.2703078
118	0x3d0ba46f	0.034092363
119	0x3d841ca1	0.06450773
120	0xbd744bca	-0.05964259
121	0xbb265f4c	-0.0025386391
122	0x3df10ca0	0.11769986
123	0xbd06e222	-0.0329305
124	0x3e8035da	0.25041085
125	0x3e76cbb8	0.2410115
126	0x39e93758	0.00044482457
127	0x3d00fd3f	0.031491514
128	0x3da2003a	0.079101995
129	0x3d02986b	0.03188364
130	0x3d6e8ba4	0.05823864
131	0x3c16b5c2	0.009198608
132	0x3de72b7d	0.112875916
133	0x3d518a7e	0.051157467
134	0xbd859b0c	-0.065237135
135	0x3e7b0484	0.24513441
136	0xbd51b3a6	-0.051196717
137	0xbe0f89a3	-0.14017348
138	0x3dbd205d	0.092346884
139	0x3c4f2d83	0.012645128
140	0xbd864632	-0.065563574
141	0xbe0e9150	-0.1392262
142	0x3d5b6277	0.0535607
143	0xbd85d81f	-0.065353625
144	0x3d052b3e	0.032511942
145	0xbda39759	-0.07987852
146	0x3e07f7d3	0.13278131
147	0x3d92ef36	0.07174532
148	0x3d0e3583	0.034719
149	0xbe5d2776	-0.21597084
150	0x3d56605d	0.052337993
151	0x3d059b3b	0.032618742
152	0x3e775e68	0.24157107
153	0x3d8d0694	0.0688602
154	0x3e4e5b1d	0.20151944
155	0x3d6888f2	0.056771226
156	0x3e19dd65	0.15025862
157	0xbc27e3c0	-0.010247171
158	0x3dffb0f6	0.124849245
159	0x3ddf27ae	0.1089624
160	0x3d8c51ad	0.06851516
161	0xbd06815d	-0.032838214
162	0xbd139943	-0.036034834
163	0xbc4c0932	-0.012453364
164	0xbd99a2c0	-0.07501745
165	0x3e7b4159	0.24536647
166	0xbdc140d7	-0.09436195
167	0x3dbb80eb	0.091554485
168	0x3b13a3e9	0.0022528118
169	0x3d413d9e	0.047177903
170	0x3ce0e059	0.027450727
171	0x3df1b737	0.118025236
172	0xbe48f681	-0.19625284
173	0xbcd75e7a	-0.026290167
174	0x3e815cf8	0.25266242
175	0xbc94acc0	-0.01814878
176	0x3b283a64	0.002566957
177	0x3d90b95f	0.07066607
178	0xbdce214d	-0.10064945
179	0x3d93bc2c	0.07213625
180	0xbc0be3fe	-0.008538244
181	0x3c5bb7fe	0.013410566
182	0xbd994c23	-0.07485225
183	0xbd9ee2a2	-0.077580705
184	0xbae653d6	-0.0017572592
185	0xb90a3060	-0.00013178727
186	0xbe1e47a6	-0.15457019
187	0xbde9fb53	-0.114248894
188	0xbe319909	-0.17343535
189	0xbd4d2b39	-0.05009005
190	0x3c88bb43	0.016690856
191	0xbd656d41	-0.056012396
192	0xbddbb536	-0.107279226
193	0x3d88cab5	0.06679288
194	0x3e0ddacd	0.13852997
195	0x3aad3ff3	0.0013217911
196	0xbd1cae25	-0.038252015
197	0xbe448512	-0.19191387
198	0x3d338c64	0.04383506
199	0xbcf746aa	-0.030185062
200	0x3c944942	0.018101338
201	0xba8e07d8	-0.0010836078
202	0xbdcbca30	-0.099506736
203	0xbc39b1b3	-0.011333871
204	0xbdb8372f	-0.089949004
205	0x3da2579d	0.07926867
206	0xbc91333a	-0.017724622
207	0x3d9806f5	0.07423202
208	0xbe10c48a	-0.14137474
209	0x3d6d2f3c	0.057906374
210	0xbdccfcff	-0.10009193
211	0x3d192728	0.037390858
212	0xbe3f7f57	-0.1870092
213	0x3d724ef5	0.05915733
214	0xbca51df8	-0.020155892
215	0xbdef288d	-0.11677656
216	0xbd964a95	-0.07338444
217	0xbc385e94	-0.011253018
218	0x3d32ee3b	0.043684226
219	0xbd498540	-0.049199343
220	0xbdff5d34	-0.12468949
221	0xbd27d2a8	-0.04097238
222	0xbc9612a9	-0.018319445
223	0xbe056528	-0.1302687
224	0xbda11eed	-0.07867227
225	0x3d1fc209	0.039003406
226	0xbcb18af1	-0.021672698
227	0xbd8beb14	-0.06831947
228	0x3da14122	0.07873751
229	0x3d0aa372	0.03384728
230	0x3d2324dc	0.039830074
231	0x3dcc0058	0.09961003
232	0x3e0c2d6c	0.13689202
233	0xbe12659e	-0.14296576
234	0x3e49920e	0.19684622
235	0x3ce674ee	0.028131928
236	0x3db501d0	0.08838236
237	0x3acef636	0.0015789929
238	0x3d824d7e	0.06362437
239	0x3cf2be25	0.029631684
240	0xbd90a69d	-0.07063029
241	0xbd63be8a	-0.055601634
242	0xbdeefac0	-0.116689205
243	0xbd8ad362	-0.06778599
244	0xbcb66d90	-0.02226904
245	0x3bbb87d0	0.005722977
246	0xbd95cc12	-0.07314314
247	0xbccff4d2	-0.025385294
248	0x3e2f3949	0.17111696
249	0xbd93fbb8	-0.07225746
250	0xbe14d757	-0.1453527
251	0xbdc0bbed	-0.09410844
252	0x3d31212f	0.043244537
253	0x3d5b5469	0.053547297
254	0xbdda4b6c	-0.10658917
255	0xbc070a3c	-0.008242186

fc.0.bias f4 [128]
0	0xba718b94	-0.0009214219
1	0xba8d44c7	-0.0010777944
2	0x00000000	0.0
3	0x00000000	0.0
4	0xbadae568	-0.0016700448
5	0x00000000	0.0
6	0xba050d43	-0.00050755235
7	0x3a83584f	0.0010020825
8	0x3b025c10	0.00198913
9	0xba4667ec	-0.0007568586
10	0x3aba4a6b	0.0014212852
11	0x00000000	0.0
12	0x3aebb7b0	0.001798382
13	0x00000000	0.0
14	0x39aeed30	0.00033364585
15	0xbaf78bf2	-0.0018886311
16	0xbb003396	-0.0019561998
17	0xbadae5da	-0.0016700581
18	0xbaa69ae8	-0.001271096
19	0x00000000	0.0
20	0xbad48307	-0.0016213366
21	0xb96ec0ae	-0.00022769228
22	0xbadae5da	-0.0016700581
23	0x00000000	0.0
24	0xba98b41c	-0.0011650356
25	0x3a93497b	0.0011237109
26	0x3a978208	0.0011559138
27	0x39bb2cc4	0.00035700772
28	0xba93ecfc	-0.0011285837
29	0x00000000	0.0
30	0xb9aa52cb	-0.00032486612
31	0x39e042e4	0.00042774447
32	0xbae2b2f2	-0.0017295761
33	0xbadae5da	-0.0016700581
34	0xbac89877	-0.0015304227
35	0x3ad8b808	0.0016534338
36	0x3b0328c4	0.0020013312
37	0x00000000	0.0
38	0xb9b022a4	-0.00033595145
39	0x00000000	0.0
40	0xba2dfed0	-0.0006637396
41	0x00000000	0.0
42	0x00000000	0.0
43	0xbafe5cd0	-0.0019406322
44	0x00000000	0.0
45	0xba81ee08	-0.0009912858
46	0x00000000	0.0
47	0x00000000	0.0
48	0x00000000	0.0
49	0x00000000	0.0
50	0x3afe3f84	0.0019397591
51	0x00000000	0.0
52	0x3adae5d8	0.0016700579
53	0x00000000	0.0
54	0x3a40cfca	0.0007355182
55	0xba9eba23	-0.0012109916
56	0x00000000	0.0
57	0x3a4cdc0e	0.0007814773
58	0xb9ecdbf7	-0.00045177314
59	0x399b9478	0.00029674522
60	0x3af6515d	0.0018792559
61	0x00000000	0.0
62	0x00000000	0.0
63	0x00000000	0.0
64	0x00000000	0.0
65	0x00000000	0.0
66	0x3aff6d7c	0.0019487585
67	0x3abf3f4c	0.0014591007
68	0xb753e4c0	-1.262984e-05
69	0x00000000	0.0
70	0xba8154c1	-0.0009867178
71	0x39a9945a	0.00032344722
72	0x00000000	0.0
73	0x39c83184	0.00038183865
74	0x00000000	0.0
75	0xb98928aa	-0.00026160973
76	0x00000000	0.0
77	0x39e478c7	0.00043577535
78	0x39fcfada	0.00048252085
79	0xbad04a14	-0.0015891218
80	0x3adae5d4	0.0016700574
81	0x390f97ec	0.00013694138
82	0x00000000	0.0
83	0xba92216b	-0.0011148875
84	0x00000000	0.0
85	0x00000000	0.0
86	0xb957e490	-0.00020589144
87	0xb9f90fbb	-0.000475047
88	0x00000000	0.0
89	0x00000000	0.0
90	0x3ab4b29d	0.0013786141
91	0xba43122d	-0.0007441368
92	0xb9b1f28c	-0.00033940782
93	0x00000000	0.0
94	0xbadae5ce	-0.0016700567
95	0x394b003a	0.00019359673
96	0xbab0a8f4	-0.0013478086
97	0xbafd4fe6	-0.001932618
98	0xbab69ce9	-0.0013932261
99	0xbadae586	-0.0016700483
100	0x00000000	0.0
101	0x00000000	0.0
102	0x3ad8e63a	0.0016548105
103	0xba23f524	-0.00062544853
104	0x3aa9766c	0.0012928969
105	0x00000000	0.0
106	0x00000000	0.0
107	0x39f8decc	0.00047468243
108	0xbadae54a	-0.0016700414
109	0xbadc19e8	-0.0016792389
110	0x00000000	0.0
111	0xb89014dc	-6.8703404e-05
112	0x38e5a1b0	0.000109496876
113	0x3adae5c8	0.001670056
114	0x00000000	0.0
115	0x00000000	0.0
116	0xba435887	-0.0007451851
117	0x00000000	0.0
118	0x39fa2e42	0.0004771818
119	0xb7a8ce20	-2.0123145e-05
120	0x00000000	0.0
121	0x3a01cc45	0.0004951398
122	0xb7470840	-1.1863245e-05
123	0x00000000	0.0
124	0x00000000	0.0
125	0x3adae46c	0.0016700155
126	0x00000000	0.0
127	0xba5c9a1c	-0.0008415298

fc.2.weight f4 [128]
0	0x3f7fd09a	0.99927676
1	0x3f7f7e14	0.99801755
2	0x3f7f7d10	0.99800205
3	0x3f7f7d10	0.99800205
4	0x3f8008d3	1.0002693
5	0x3f7f7d10	0.99800205
6	0x3f8036ca	1.001672
7	0x3f801741	1.0007097
8	0x3f7fa111	0.9985514
9	0x3f7fccd8	0.9992194
10	0x3f7f7ced	0.99799997
11	0x3f7f7d10	0.99800205
12	0x3f7fd380	0.999321
13	0x3f7f7d10	0.99800205
14	0x3f7f8159	0.99806744
15	0x3f7f7d05	0.9980014
16	0x3f801574	1.0006547
17	0x3f7f928c	0.9983299
18	0x3f8010c2	1.0005114
19	0x3f7f7d10	0.99800205
20	0x3f7fa7c7	0.9986538
21	0x3f804151	1.0019933
22	0x3f7f9289	0.9983297
23	0x3f7f7d10	0.99800205
24	0x3f7fea92	0.999673
25	0x3f8029c3	1.0012745
26	0x3f804186	1.0019996
27	0x3f7f7f1f	0.99803346
28	0x3f800b42	1.0003436
29	0x3f7f7d10	0.99800205
30	0x3f7f7ec2	0.9980279
31	0x3f7f88d5	0.99818164
32	0x3f7fa8df	0.9986705
33	0x3f7f925b	0.99832696
34	0x3f7fd55b	0.9993493
35	0x3f7f810c	0.99806285
36	0x3f7feab7	0.9996752
37	0x3f7f7d10	0.99800205
38	0x3f8010bc	1.0005107
39	0x3f7f7d10	0.99800205
40	0x3f7f946d	0.99835855
41	0x3f7f7d10	0.99800205
42	0x3f7f7d10	0.99800205
43	0x3f7f886b	0.9981753
44	0x3f7f7d10	0.99800205
45	0x3f800aa2	1.0003245
46	0x3f7f7d10	0.99800205
47	0x3f7f7d10	0.99800205
48	0x3f7f7d10	0.99800205
49	0x3f7f7d10	0.99800205
50	0x3f7fc0d2	0.99903595
51	0x3f7f7d10	0.99800205
52	0x3f800a41	1.0003129
53	0x3f7f7d10	0.99800205
54	0x3f7f7dcd	0.9980133
55	0x3f7f7d38	0.99800444
56	0x3f7f7d10	0.99800205
57	0x3f7f8b8f	0.99822325
58	0x3f7fd7f7	0.9993891
59	0x3f803b2c	1.0018058
60	0x3f7f7ce7	0.9979996
61	0x3f7f7d10	0.99800205
62	0x3f7f7d10	0.99800205
63	0x3f7f7d10	0.99800205
64	0x3f7f7d10	0.99800205
65	0x3f7f7d10	0.99800205
66	0x3f7f8a09	0.9982
67	0x3f8019d6	1.0007885
68	0x3f7f7eda	0.99802935
69	0x3f7f7d10	0.99800205
70	0x3f7fe35c	0.999563
71	0x3f7fbdaf	0.9989881
72	0x3f803020	1.0014687
73	0x3f8032a8	1.0015459
74	0x3f7f7d10	0.99800205
75	0x3f7f7eee	0.99803054
76	0x3f7f7d10	0.99800205
77	0x3f7fc6d3	0.99912757
78	0x3f7f84bb	0.99811906
79	0x3f7fa262	0.9985715
80	0x3f7f8290	0.998086
81	0x3f7f8841	0.9981728
82	0x3f7f7d10	0.99800205
83	0x3f8033a2	1.0015757
84	0x3f7f7d10	0.99800205
85	0x3f7f7d10	0.99800205
86	0x3f7f8006	0.99804723
87	0x3f800f43	1.0004658
88	0x3f7f7d10	0.99800205
89	0x3f7f7d10	0.99800205
90	0x3f7fb0c7	0.99879116
91	0x3f7f8dc3	0.99825686
92	0x3f803bec	1.0018287
93	0x3f7f7d10	0.99800205
94	0x3f7f8053	0.9980518
95	0x3f7fcb72	0.9991981
96	0x3f8019bf	1.0007857
97	0x3f803037	1.0014714
98	0x3f80091f	1.0002784
99	0x3f7f921c	0.9983232
100	0x3f7f7d10	0.99800205
101	0x3f7f7d10	0.99800205
102	0x3f7fa2f4	0.9985802
103	0x3f7fb4c8	0.99885225
104	0x3f7f7da3	0.9980108
105	0x3f7f7d10	0.99800205
106	0x3f7f7d10	0.99800205
107	0x3f7f87d1	0.99816614
108	0x3f7fdf61	0.99950224
109	0x3f7f7ce6	0.99799955
110	0x3f7f7d10	0.99800205
111	0x3f7fa966	0.99867857
112	0x3f800a04	1.0003057
113	0x3f8036b4	1.0016694
114	0x3f7f7d10	0.99800205
115	0x3f7f7d10	0.99800205
116	0x3f7f7e58	0.9980216
117	0x3f7f7d10	0.99800205
118	0x3f8008f0	1.0002728
119	0x3f7f8b06	0.9982151
120	0x3f7f7d10	0.99800205
121	0x3f7f7d60	0.9980068
122	0x3f800934	1.0002809
123	0x3f7f7d10	0.99800205
124	0x3f7f7d10	0.99800205
125	0x3f803e19	1.0018951
126	0x3f7f7d10	0.99800205
127	0x3f7f7d0f	0.998002
